checkpoints/SRSCN/model_acnn.pth (torch, 451371 bytes, 60 tensors)

weight f4 [16, 1, 3, 3]
-0.24950613 0.19118328 -0.0340854 0.17934184 0.034193274 0.054666698 -0.2026456 0.2977592
0.3156129 0.2872798 0.21418305 0.21333076 -0.078143224 -0.008034924 -0.28059387 -0.020069975
0.030085327 0.28536963 0.06384947 -0.28234494 -0.29447702 -0.17114408 0.020311015 0.3224711
0.089981526 0.16703409 -0.31689736 -0.28824908 0.114928395 -0.302053 0.22995123 -0.25921613
0.05617801 0.2690114 -0.32787094 0.2368934 -0.1589791 0.16616683 -0.19227855 0.06537627
-0.010122647 -0.019581845 0.14004041 0.10610629 -0.11172065 -0.29514474 0.17953044 0.108088724
0.091567546 -0.02928099 -0.04128372 -0.31356305 -0.28363845 0.18282054 -0.043091893 -0.16600424
-0.070857726 -0.1481648 0.21656486 0.018459352 -0.23354883 0.078612305 -0.2352537 0.048112437
-0.23546034 0.24361219 -0.061724726 -0.041207656 -0.03435151 -0.041030258 0.11860549 0.24856141
0.005652371 -0.24028483 0.16109142 -0.23406877 0.28418213 0.32608026 -0.050824963 0.06714485
-0.026139295 0.21925087 -0.017281972 -0.15674402 0.008968808 0.17373385 0.31300303 -0.005196418
-0.0036864842 -0.15198117 -0.053718645 0.32701197 0.19503361 0.057538047 -0.29371464 -0.020476995
-0.04712719 -0.30947283 0.30475914 -0.040849417 0.19289169 -0.18152021 -0.21990788 -0.016617592
-0.29358146 0.11168283 0.14585508 -0.08354274 -0.3051148 0.10400382 -0.3302694 0.07429962
-0.29007375 -0.13371347 0.104074694 -0.28797236 -0.32147092 0.2844484 0.31727928 0.28222132
0.30469698 -0.25531414 0.225884 -0.11864996 0.124794275 0.06431341 -0.32581562 -0.23493055
-0.31749332 0.31325647 -0.14969122 -0.29812306 0.29020035 -0.20336935 -0.18712537 -0.12764457
-0.27878064 0.004044481 -0.09191119 -0.292359 0.13074425 0.31639373 -0.27670836 -0.059106544
00000000: 897e 7fbe 8dc5 433e 229d 0bbd 63a5 373e
00000010: 3f0e 0c3d 30ea 5f3d 5482 4fbe e573 983e
00000020: 0498 a13e 5716 933e cd52 5b3e 6173 5a3e
00000030: 8e09 a0bd eaa4 03bc 00aa 8fbe ca69 a4bc
00000040: 8175 f63c f81b 923e 83c3 823d 848f 90be
00000050: b1c5 96be 6540 2fbe 4963 a63c ef1a a53e
00000060: 3c48 b83d fc0a 2b3e 5f40 a2be 6295 93be
00000070: 945f eb3d b1a6 9abe 5678 6b3e fab7 84be
00000080: ea1a 663d ddbb 893e b3de a7be 2f94 723e
00000090: 6bcb 22be a327 2a3e abe4 44be fee3 853d
000000a0: 75d9 25bc 1b6a a0bc c166 0f3e 414e d93d
000000b0: cccd e4bd 361d 97be d4d6 373e 9f5d dd3d
000000c0: c487 bb3d b0de efbc 1e19 29bd 568b a0be
000000d0: 0f39 91be 4f35 3b3e 2081 30bd 04fd 29be
000000e0: db1d 91bd 83b8 17be 2ec3 5d3e 1138 973c
000000f0: 6d27 6fbe 7dff a03d 59e6 70be 8c11 453d
00000100: 841c 71be 7975 793e 11d3 7cbd 5cc9 28bd
00000110: 2bb4 0cbd 580f 28bd 6fe7 f23d e286 7e3e
00000120: 8637 b93b 3a0d 76be 26f5 243e b9af 6fbe
00000130: 5280 913e fef3 a63e d62d 50bd 3d83 893d
00000140: 1322 d6bc 4d83 603e ec92 8dbc 8181 20be
00000150: e8f1 123c 49e7 313e ef41 a03e b746 aabb
00000160: f198 71bb f4a0 1bbe 1508 5cbd 1d6e a73e
00000170: e4b6 473e 04ad 6b3d c461 96be 5fbf a7bc
00000180: 7108 41bd 3973 9ebe 6409 9c3e b851 27bd
00000190: 6685 453e 6fe0 39be 882f 61be 9e21 88bc
000001a0: 4f50 96be f8b9 e43d 095b 153e 7518 abbd
000001b0: 0238 9cbe f4ff d43d 1219 a9be 662a 983d
000001c0: 8c84 94be 2fec 08be 1d25 d53d 1d71 93be
000001d0: d697 a4be 38a3 913e 6e72 a23e 507f 903e
000001e0: 3e01 9c3e 89b8 82be 234e 673e c0fe f2bd
000001f0: 2494 ff3d c0b6 833d 4ed1 a6be a291 70be
00000200: 7c8e a2be 2763 a03e a848 19be 96a3 98be
00000210: 2495 943e 0e40 50be cb9d 3fbe 42b5 02be
00000220: 56bc 8ebe 9187 843b ef3b bcbd 14b0 95be
00000230: d2e1 053e 5cfe a13e b8ac 8dbe b419 72bd

bias f4 [16]
0.1597953 0.2582544 -0.31090558 0.2595983 0.07028274 -0.020584783 0.19618666 -0.0686596
0.25623888 -0.15543006 -0.094400875 0.18757299 0.055525787 -0.118105225 -0.31157023 -0.061662417
00000000: 61a1 233e ec39 843e 042f 9fbe 12ea 843e
00000010: 66f0 8f3d 6ba1 a8bc 28e5 483e 689d 8cbd
00000020: be31 833e 0f29 1fbe 3f55 c1bd 2213 403e
00000030: 026f 633d 27e1 f1bd 2286 9fbe bb91 7cbd

weight f4 [16]
0.99591076 1.0064746 0.99607825 0.992152 1.0077447 0.99115753 1.0006098 1.008222
0.9872529 1.0032189 0.99561894 1.004109 0.9970744 1.0006723 1.0008581 0.9925665
00000000: 02f4 7e3f 29d4 803f fcfe 7e3f acfd 7d3f
00000010: c7fd 803f 80bc 7d3f fb13 803f 6b0d 813f
00000020: 9bbc 7c3f 7a69 803f e2e0 7e3f a586 803f
00000030: 4540 7f3f 0816 803f 1e1c 803f d718 7e3f

bias f4 [16]
0.009954229 0.008529004 0.0013113992 -0.0048078103 0.009588012 0.002866773 0.004684112 0.006654297
-0.01319397 -0.0024597396 -0.00076820643 0.006570588 -0.001303037 -0.009201885 -0.010659081 0.0021313722
00000000: 1017 233c 3cbd 0b3c 41e3 ab3a d68a 9dbb
00000010: 0917 1d3c 78e0 3b3b 2e7d 993b 4a0c da3b
00000020: 852b 58bc 9533 21bb 7661 49ba 164e d73b
00000030: abca aaba 81c3 16bc 6da3 2ebc 7eae 0b3b

running_mean f4 [16]
0.20444782 0.30718294 -0.34142277 0.23903748 0.06914598 -0.051088512 0.15179606 -0.050017647
0.2785383 -0.12647498 -0.08224621 0.15818492 -0.049976736 -0.024493838 -0.3962754 -0.11305708
00000000: c55a 513e 1547 9d3e f7ce aebe 3ec6 743e
00000010: 689c 8d3d 3042 51bd 6d70 1b3e 4edf 4cbd
00000020: 929c 8e3e a882 01be b370 a8bd 3afb 213e
00000030: 68b4 4cbd 4da7 c8bc 9ce4 cabe 788a e7bd

running_var f4 [16]
0.059272848 0.06759116 0.027789466 0.0151109565 0.0012130567 0.029125925 0.054775834 0.011088671
0.017211417 0.02469588 0.00718783 0.025478233 0.3124288 0.2455699 0.20779444 0.07687443
00000000: 16c8 723d 3c6d 8a3d bca6 e33c f293 773c
00000010: 6eff 9e3a 7e99 ee3c a05c 603d 42ad 353c
00000020: f5fe 8c3c 044f ca3c e387 eb3b bab7 d03c
00000030: abf6 9f3e ad76 7b3e 11c8 543e 5770 9d3d

weight f4 [16, 16, 3, 3]
-0.018415883 -0.06771554 -0.012482466 -0.053667262 0.02747426 -0.041599717 -0.07632479 0.0373849
0.000318491 0.07281203 0.06810644 -0.062353447 0.08131728 0.0546195 0.04733913 -0.052631356
0.045914322 0.03843197 -0.014227825 0.049429413 -0.08620756 -0.03589739 -0.03238332 -0.038368043
-0.06285784 0.03292037 0.016244303 0.017734222 0.05253624 -0.058682553 -0.044837076 0.012502815
0.050158866 -0.073324986 0.044892497 0.07390834 -0.043842565 -0.02121237 -0.06887202 -0.0064762984
-0.06507718 0.04629777 -0.045476105 0.0459101 0.033560008 -0.08544853 0.06569036 0.06679453
-0.07412216 0.050575275 0.04736065 0.05684293 0.016590709 -0.056701742 0.053970978 -0.03450776
0.04703735 0.0034976432 -0.03494396 0.021012943 -0.037380647 0.024420802 -0.05931802 0.088862814
0.013928509 0.03493531 0.04978656 0.07290602 0.018342424 -0.06456921 -0.07208866 0.08692087
0.020625355 -0.040366583 0.033103526 0.08909166 -0.029234856 -0.055307027 -0.06854171 0.081300825
-0.06473047 -0.05048757 0.046808265 -0.008956061 0.036677044 -0.0033028717 0.059176497 -0.01565718
-0.009441018 0.03171191 0.012320795 0.035503086 -0.0180674 -0.036293164 -0.017524743 -0.007682664
0.08079471 -0.040414583 0.04141103 -0.060077418 -0.02177141 0.057426743 0.034735788 -0.04392636
0.0045858608 -0.002890468 0.031222884 0.026186481 -0.07064005 -0.0058443826 -0.05335451 -0.036062583
0.009117796 -0.027172532 0.030954141 0.06906042 -0.07433138 -0.055264242 -0.035748236 -0.066064656
0.04869421 -0.009092818 0.004831112 0.008495431 0.08624682 -0.025410043 0.014699557 0.06852496
-0.06365025 0.013220053 0.04266794 0.016019141 0.059487823 0.0016558064 0.061695248 -0.0919233
-0.056946676 0.058813196 -0.030868037 -0.018778862 0.012948048 0.048546977 -0.024260566 0.0074321437
0.060269237 0.045333218 -0.03936004 -0.04457524 0.0328891 -0.024173185 0.009505709 -0.043458942
-0.052421883 0.018900182 -0.016191937 0.036415312 -0.06847743 -0.020869244 0.062343925 0.042332787
-0.061336532 -0.054031078 0.059639364 0.012705947 -0.026479714 0.07197839 0.06306552 0.049482398
-0.06524087 0.03126532 0.024449721 -0.08316007 0.050282925 0.055157512 0.039570972 -0.021470778
0.025760207 -0.056479473 0.06579912 -0.052281555 0.0016327453 0.023710027 0.0719171 -0.07779108
0.010794409 0.0007241902 0.063642986 -0.010092573 0.0071431375 0.026278792 -0.058443934 -0.009908981
-0.03863469 0.06903705 0.02831129 0.08548213 -0.011317988 -0.038998462 -0.012961239 0.024136191
0.061228316 -0.06617404 -0.06810029 0.080452695 0.028599808 0.07242777 0.07656779 -0.011991037
0.072767854 -0.053582754 0.0036644407 0.03017429 -0.044777513 -0.07805702 -0.065601416 0.022050431
0.057842053 0.06854759 0.07045646 -0.065657385 -0.01907929 0.04864418 -0.07183772 -0.01685951
0.07445394 -0.014217031 -0.05581948 0.0780439 0.024898957 -0.03453395 -0.013799144 -0.055113632
0.063909136 -0.04983374 0.020552022 0.069294974 -0.051077627 0.0076080277 0.05871431 0.014324373
0.07527656 -0.01173321 -0.06343459 -0.07041966 -0.03965937 0.07598116 -0.088971265 0.087334536
-0.08292405 0.008850637 0.07293942 -0.066754684 -0.043676015 0.056444164 0.083561875 0.037225343
00000000: e8dc 96bc 72ae 8abd 4283 4cbc 34d2 5bbd
00000010: b311 e13c 7764 2abd 2c50 9cbd e920 193d
00000020: 23fb a639 791e 953d 647b 8b3d 5466 7fbd
00000030: ad89 a63d b2b8 5f3d ade6 413d fa93 57bd
00000040: a810 3c3d d76a 1d3d d31b 69bc 7f76 4a3d
00000050: 978d b0bd 2409 13bd 5fa4 04bd cf27 1dbd
00000060: 9cbb 80bd 83d7 063d c612 853c 5c47 913c
00000070: 3e30 573d 1e5d 70bd 15a7 37bd 9bd8 4c3c
00000080: 6273 4d3d 692b 96bd 32e1 373d 415d 973d
00000090: 4394 33bd 90c5 adbc c60c 8dbd 2137 d4bb
000000a0: 2f47 85bd bba2 3d3d 2745 3abd 3b0c 3c3d
000000b0: 3876 093d a4ff aebd ab88 863d 92cb 883d
000000c0: 5ccd 97bd 0528 4f3d 3efd 413d 22d4 683d
000000d0: 3de9 873c 1640 68bd ac10 5d3d 0258 0dbd
000000e0: 3caa 403d b738 653b 6621 0fbd 5623 ac3c
000000f0: 731c 19bd 220e c83c 74f7 72bd b5fd b53d
00000100: 6734 643c 5418 0f3d feec 4b3d c04f 953d
00000110: da42 963c dd3c 84bd 38a3 93bd 9203 b23d
00000120: 81f6 a83c 6e57 25bd 9097 073d b075 b63d
00000130: f07d efbc 9f89 62bd 995f 8cbd 0c81 a63d
00000140: 6991 84bd 0ecc 4ebd 06ba 3f3d 71bc 12bc
00000150: ab3a 163d fe74 58bb 0e63 723d 7d43 80bc
00000160: 80ae 1abc 59e4 013d 29dd 493c af6b 113d
00000170: 1602 94bc 24a8 14bd 0d90 8fbc dbbe fbbb
00000180: b277 a53d c389 25bd 9d9e 293d bd13 76bd
00000190: f559 b2bc 4e38 6b3d 1d47 0e3d 20ec 33bd
000001a0: fd44 963b 026e 3dbb 22c7 ff3c 0885 d63c
000001b0: bbab 90bd 3c82 bfbb 428a 5abd 5cb6 13bd
000001c0: cf62 153c ee98 debc 8a93 fd3c 8d6f 8d3d
000001d0: 0d3b 98bd c25c 62bd be6c 12bd e84c 87bd
000001e0: 9473 473d 0bfa 14bc 4e4e 9e3b 6c30 0b3c
000001f0: 2ca2 b03d b928 d0bc 69d6 703c d056 8c3d
00000200: 105b 82bd ec98 583c 94c4 2e3d 933a 833c
00000210: 81a9 733d a507 d93a 28b4 7c3d 4842 bcbd
00000220: eb40 69bd 1be6 703d f7de fcbc 21d6 99bc
00000230: 0d24 543c 32d9 463d 18be c6bc 5789 f33b
00000240: e0dc 763d 53af 393d fe37 21bd 8794 36bd
00000250: b9b6 063d d806 c6bc d5bd 1b3c 0102 32bd
00000260: 54b8 56bd 8ed4 9a3c f4a4 84bc 3928 153d
00000270: e53d 8cbd faf5 aabc 585c 7f3d 2565 2d3d
00000280: 043c 7bbd b14f 5dbd 6848 743d 9b2c 503c
00000290: fceb d8bc 6869 933d 7f28 813d 0eae 4a3d
000002a0: 019d 85bd 1010 003d c84a c83c d44f aabd
000002b0: 78f5 4d3d d8ec 613d 2c15 223d 7ce3 afbc
000002c0: 1207 d33c 0557 67bd b0c1 863d 2f25 56bd
000002d0: d701 d63a 883b c23c 4649 933d ee50 9fbd
000002e0: 08db 303c 95d7 3d3a 4157 823d 525b 25bc
000002f0: fb10 ea3b 9f46 d73c e862 6fbd 4759 22bc
00000300: 693f 1ebd 4c63 8d3d 14ed e73c 4111 af3d
00000310: 156f 39bc dabc 1fbd 605b 54bc 43b9 c53c
00000320: 8bca 7a3d 4186 87bd 2a78 8bbd 62c4 a43d
00000330: 254a ea3c 0355 943d 93cf 9c3d 0e76 44bc
00000340: 5007 953d 9779 5bbd 1d27 703b 1330 f73c
00000350: a068 37bd 5cdc 9fbd 095a 86bd 1ba3 b43c
00000360: caeb 6c3d ae62 8c3d 7a4b 903d 6177 86bd
00000370: 2c4c 9cbc 1f3f 473d a81f 93bd f51c 8abc
00000380: 4f7b 983d 8dee 68bc f8a2 64bd 7bd5 9f3d
00000390: e6f8 cb3c 7973 0dbd ce15 62bc d5be 61bd
000003a0: cbe2 823d 771e 4cbd b75c a83c 86ea 8d3d
000003b0: c636 51bd c34c f93b 6b7e 703d c6b0 6a3c
000003c0: 992a 9a3d a63c 40bc ffe9 81bd 2f38 90bd
000003d0: dd71 22bd 039c 9b3d 9136 b6bd 73dc b23d
000003e0: 16d4 a9bd 4302 113c 4361 953d aeb6 88bd
000003f0: 9fe5 32bd ff31 673d 7d22 ab3d 9a79 183d

bias f4 [16]
-0.063539706 -0.018044157 0.015331953 0.0093651265 0.07303766 0.015230218 -0.08173162 0.016682062
0.004599158 -0.030497588 0.018792197 0.007082706 -0.0028486873 0.042059097 0.014646878 -0.078323215
00000000: 1b21 82bd 57d1 93bc df32 7b3c 3070 193c
00000010: c594 953d 2a88 793c e862 a7bd d2a8 883c
00000020: 89b4 963b 14d6 f9bc 18f2 993c 0b16 e83b
00000030: 0bb1 3abb 2946 2c3d 75f9 6f3c ec67 a0bd

weight f4 [16]
1.0024722 1.0052513 1.0114897 0.99458635 1.0023006 1.0072931 0.9976208 0.99454564
1.0030643 0.98986304 0.9976996 1.0088938 0.9897403 0.9925312 0.98866826 0.9900134
00000000: 0251 803f 13ac 803f 7f78 813f 369d 7e3f
00000010: 634b 803f fbee 803f 1464 7f3f 8b9a 7e3f
00000020: 6964 803f aa67 7d3f 3e69 7f3f 6f23 813f
00000030: 9f5f 7d3f 8616 7e3f 5d19 7d3f 8571 7d3f

bias f4 [16]
-0.0043802406 0.0006434496 0.004328884 -0.005609918 0.009108734 -0.00785421 -0.010943605 -0.0038952085
-0.004190336 -0.0077845436 -0.004578546 0.010786529 -0.0009835723 0.0032098263 0.0032618449 -0.0019533727
00000000: 1f88 8fbb 2cad 283a 50d9 8d3b 67d3 b7bb
00000010: cd3c 153c f2ae 00bc ce4c 33bc c146 7fbb
00000020: 164f 89bb 7c15 ffbb a107 96bb fbb9 303c
00000030: 36eb 80ba f35b 523b adc4 553b 2804 00bb

running_mean f4 [16]
-0.01656578 0.1755169 0.2740422 -0.052998416 -0.13588084 0.100504205 0.024888687 0.17712213
0.06706739 -0.10783557 -0.07607302 0.09809285 -0.13914609 0.09492156 -0.055101644 -0.16140902
00000000: f5b4 87bc b4ba 333e 424f 8c3e de14 59bd
00000010: 5924 0bbe 26d5 cd3d 5ce3 cb3c 815f 353e
00000020: a15a 893d e5d8 dcbd 2ccc 9bbd e7e4 c83d
00000030: 507c 0ebe 3c66 c23d 43b2 61bd 6848 25be

running_var f4 [16]
0.13418561 0.09926538 0.41506946 0.074271366 0.55106705 0.093350865 0.46703666 0.82514006
0.39290676 0.15336898 0.23978442 0.46707037 0.8831383 0.059997592 0.513888 0.34278402
00000000: f467 093e a64b cb3d fc83 d43e 961b 983d
00000010: bb12 0d3f bd2e bf3d 6e1f ef3e 613c 533f
00000020: 132b c93e c20c 1d3e 0c8a 753e d923 ef3e
00000030: 5a15 623f 09c0 753d 2a8e 033f 6381 af3e

weight f4 [32, 16, 3, 3]
0.009850944 0.04286189 0.07390727 -0.013591172 0.049801152 -0.029793456 -0.077519625 -0.063826635
0.04445198 0.06822859 0.061113156 0.045804437 -0.039361116 -0.0029363097 -0.055251393 0.0031248708
-0.035695754 -0.056037366 -0.059384406 0.07203823 0.079305805 0.07915769 0.061212644 0.08486502
0.04190784 0.057971638 -0.058099598 0.022087725 -0.061549295 0.07096441 -0.054989364 0.03041727
-0.0740933 -0.008229586 0.057969533 -0.035277676 0.003924759 -0.01747267 -0.06979862 0.068421215
0.027997652 0.07781066 0.0377457 -0.0095203435 0.054745257 -0.01732372 -7.9304664e-05 -0.06118463
-0.0068399627 0.061210845 0.08358132 0.07699238 0.019678706 -0.0036248167 0.046866667 -0.00035168824
-0.021383958 -0.028002035 -0.046227906 0.021863952 -0.05396658 -0.01039887 -0.028555823 -0.064356394
-0.011285554 0.06333432 -0.0251026 -0.04393293 0.07850252 -0.0146418745 0.058149345 0.0672719
-0.020729262 0.022007199 0.0821502 0.028505065 0.05080672 0.05797915 0.060332023 -0.026739333
0.052106228 -0.02035358 0.059612963 0.0076602274 0.020528536 0.035366427 -0.017283114 -0.005218927
0.059455656 -0.046428565 -0.023331769 -0.037134923 -0.049721003 -0.045113396 -0.03638959 -0.0010577532
-0.022434149 0.020607691 -0.04768773 -0.016138494 0.05981919 0.027000148 -0.024447307 0.019885046
0.014642553 0.0028432098 0.027971491 -0.0603274 0.014395896 0.00973302 0.07287151 0.079136774
-0.0008939856 0.0045431945 0.04456109 0.07006782 -0.0145517355 0.07144487 -0.045307636 -0.0223407
0.06347876 -0.01936116 0.0039353305 -0.05821076 0.03608941 0.08686765 -0.028987221 -0.015734127
0.07963802 -0.071901195 0.038026072 -0.035309672 -0.018347401 0.05644391 0.00797711 0.07256894
0.03800961 -0.043481853 0.015479994 0.0041402737 0.0147545505 -0.056182306 0.047673766 0.056712683
-0.064143665 -0.08336244 -0.04779315 0.06297857 0.052992795 0.083938956 0.0063039702 -0.043391503
0.055013947 0.06524734 -0.07612299 -0.089077234 0.03754244 -0.07645102 -0.01830901 -0.070231415
0.048172705 0.02297252 0.021693297 -0.023673102 0.042676266 0.016034892 0.043435145 -0.03170585
0.055886894 0.056369398 0.033360906 -0.08898022 0.050098952 -0.019030089 0.03454507 0.023278136
-0.052317876 0.038780198 -0.026592452 0.016985146 0.0001720055 -0.07228301 0.0681692 0.037181437
0.07380815 -0.078999646 0.07196923 -0.038201764 0.003317036 0.021588916 0.06338617 -0.08831092
0.07027136 0.0115002375 -0.057676286 -0.018952228 -0.080427416 -0.0024717336 0.012900662 0.00072458223
-0.0055198926 -0.06934488 0.029111175 0.00022599376 -0.04022117 0.03587551 0.071363315 -0.0042528994
-0.060958836 -0.008134066 -0.06305707 -0.059407957 -0.01789273 -0.059174895 0.05436837 -0.021489177
-0.07635258 -0.07780235 0.06552012 0.012128339 0.02150352 -0.02806731 0.011411429 -0.040127788
0.031511363 -0.049242277 -0.06770654 0.032687843 -0.061761893 0.0037290587 -0.044745766 -0.0041369097
-0.07708429 0.06580447 -0.08424002 0.0050250567 -0.042446345 0.0087598115 -0.052579604 -0.0622172
0.006454761 -0.049496323 0.011537045 -0.034481112 -0.005891267 -0.017307647 0.016613014 0.045526125
-0.09023852 0.06896856 0.020340862 -0.07780517 -0.06462063 -0.0036107006 0.07375785 -0.07498725
00000000: db65 213c f38f 2f3d b25c 973d 82ad 5ebc
00000010: 4bfc 4b3d 6811 f4bc 9cc2 9ebd 8ab7 82bd
00000020: 4813 363d 6ebb 8b3d ca51 7a3d 6f9d 3b3d
00000030: 1f39 21bd 1a6f 40bb 494f 62bd a2ca 4c3b
00000040: b635 12bd 7087 65bd 103d 73bd c888 933d
00000050: 156b a23d 6d1d a23d 1cba 7a3d b6cd ad3d
00000060: 8ea7 2b3d ab73 6d3d d8f9 6dbd 51f1 b43c
00000070: 1d1b 7cbd ca55 913d 873c 61bd a32d f93c
00000080: 3abe 97bd 63d5 06bc 7671 6d3d 537f 10bd
00000090: 449b 803b d822 8fbc 94f2 8ebd 6c20 8c3d
000000a0: 555b e53c 325b 9f3d 3c9b 1a3d 37fb 1bbc
000000b0: 903c 603d 79ea 8dbc 5e50 a6b8 bc9c 7abd
000000c0: c421 e0bb 39b8 7a3d af2c ab3d 2eae 9d3d
000000d0: 3d35 a13c 558e 6dbb 43f7 3f3d cc62 b8b9
000000e0: 692d afbc 8664 e5bc 7959 3dbd 081c b33c
000000f0: 100c 5dbd 0660 2abc e7ed e9bc 49cd 83bd
00000100: 0be7 38bc 6db5 813d f8a3 cdbc 04f3 33bd
00000110: eec5 a03d 79e4 6fbc 022e 6e3d dac5 893d
00000120: 6ad0 a9bc 7148 b43c 5d3e a83d 7483 e93c
00000130: b51a 503d 8c7b 6d3d b61e 773d 720c dbbc
00000140: 576d 553d 8dbc a6bc b92c 743d a502 fb3b
00000150: 762b a83c 63dc 103d 5195 8dbc 8803 abbb
00000160: c687 733d e12b 3ebd 4422 bfbc ca1a 18bd
00000170: 40a8 4bbd d3c8 38bd 400d 15bd 4fa4 8aba
00000180: d2c7 b7bc 76d1 a83c 3654 43bd e034 84bc
00000190: f804 753d 6a2f dd3c b845 c8bc f7e5 a23c
000001a0: 52e7 6f3c 2555 3a3b 7824 e53c dd19 77bd
000001b0: c4dc 6b3c 3f77 1f3c a93d 953d 7612 a23d
000001c0: 5c5a 6aba 14df 943b b185 363d b87f 8f3d
000001d0: 676a 6ebc b051 923d 8094 39bd d803 b7bc
000001e0: 2701 823d 4c9b 9ebc f2f3 803b 686e 6ebd
000001f0: 7dd2 133d abe7 b13d 9c76 edbc dbe4 80bc
00000200: 4219 a33d ef40 93bd 3ac1 1b3d e0a0 10bd
00000210: 4a4d 96bc bb31 673d 6db2 023c 069f 943d
00000220: f7af 1b3d 071a 32bd cd9f 7d3c 22ab 873b
00000230: 12bd 713c 6b1f 66bd 9145 433d 8f4b 683d
00000240: c15d 83bd edb9 aabd c0c2 43bd e9fa 803d
00000250: f90e 593d 30e8 ab3d 8991 ce3b 4abb 31bd
00000260: 4e56 613d 66a0 853d 5fe6 9bbd 206e b6bd
00000270: 1ac6 193d 5a92 9cbd c7fc 95bc 7dd5 8fbd
00000280: be50 453d de30 bc3c 24b6 b13c 18ee c1bc
00000290: 4fcd 2e3d 9b5b 833c 0de9 313d fedd 01bd
000002a0: a8e9 643d 99e3 663d 72a5 083d 433b b6bd
000002b0: 8f34 4d3d fde4 9bbc 227f 0d3d cab1 be3c
000002c0: 454b 56bd fcd7 1e3d 6ad8 d9bc 6f24 8b3c
000002d0: 605c 3439 1d09 94bd 4b9c 8b3d 904b 183d
000002e0: ba28 973d 91ca a1bd 9b64 933d 7479 1cbd
000002f0: a162 593b 3ddb b03c 9cd0 813d 5bdc b4bd
00000300: 6eea 8f3d 7e6b 3c3c f83d 6cbd b441 9bbc
00000310: 21b7 a4bd cffc 21bb 4c5d 533c e4f1 3d3a
00000320: 37e0 b4bb b004 8ebd 8f7a ee3c bdf8 6c39
00000330: f4be 24bd 33f2 123d ee26 923d e85b 8bbb
00000340: f9af 79bd bf44 05bc 1124 81bd c255 73bd
00000350: c693 92bc 6061 72bd 5eb1 5e3d 120a b0bc
00000360: be5e 9cbd d756 9fbd 6a2f 863d f1b5 463c
00000370: 2628 b03c 6aed e5bc 01f7 3a3c 095d 24bd
00000380: 0f12 013d 45b2 49bd baa9 8abd b0e3 053d
00000390: 0afa 7cbd 3963 743b 5647 37bd ea8e 87bb
000003a0: 5ede 9dbd 7ec4 863d 0886 acbd 3ba9 a43b
000003b0: 38dc 2dbd 5085 0f3c b65d 57bd 76d7 7ebd
000003c0: 7682 d33b a8bc 4abd e005 3d3c 113c 0dbd
000003d0: 880b c1bb c4c8 8dbc 0418 883c 9a79 3a3d
000003e0: f9ce b8bd 633f 8d3d e1a1 a63c 5158 9fbd
000003f0: d257 84bd 81a1 6cbb 5b0e 973d ea92 99bd

bias f4 [32]
-0.048082743 0.058731902 0.03466239 0.025494134 0.019286163 -0.06611885 -0.046897613 -0.039466355
-0.05078088 0.07546335 0.058612827 0.029103775 -0.07133564 0.013277986 -0.06276959 -0.074763775
-0.054285616 0.0508517 0.010813269 -0.038165927 0.03673135 0.04237209 0.009209245 0.007686541
-0.040626317 0.023344032 -0.06362501 0.0042693056 0.022697851 -0.072280265 0.07283406 0.079049066
00000000: 69f2 44bd dd90 703d 26fa 0d3d 13d9 d03c
00000010: 04fe 9d3c 5269 87bd b617 40bd 79a7 21bd
00000020: 9dff 4fbd 878c 9a3d 0114 703d 0a6b ee3c
00000030: 6c18 92bd e98b 593c 588d 80bd c01d 99bd
00000040: 985a 5ebd df49 503d 232a 313c e053 1cbd
00000050: 9d73 163d 5b8e 2d3d 60e2 163c 61df fb3b
00000060: c867 26bd fc3b bf3c d44d 82bd 88e5 8b3b
00000070: d8f0 b93c ad07 94bd 062a 953d 7ae4 a13d

weight f4 [32]
1.0109856 0.9915307 1.0055254 0.991412 0.99401915 0.99605215 0.9968682 1.0088981
1.0052232 0.9995218 1.0088859 0.9894269 0.99181885 0.9931233 1.0083677 1.0009602
1.0096649 0.9898463 0.9898292 0.99933904 0.9955659 0.9944859 0.98743355 0.9946731
1.0012918 1.005075 0.99101484 0.9922795 0.99725586 1.0024768 1.0091072 0.99281216
00000000: fa67 813f f5d4 7d3f 0eb5 803f 2dcd 7d3f
00000010: 0a78 7e3f 46fd 7e3f c132 7f3f 9323 813f
00000020: 27ab 803f a9e0 7f3f 2c23 813f 154b 7d3f
00000030: d7e7 7d3f 543d 7e3f 3112 813f 771f 803f
00000040: b33c 813f 9166 7d3f 7265 7d3f afd4 7f3f
00000050: 68dd 7e3f a196 7e3f 72c8 7c3f e5a2 7e3f
00000060: 542a 803f 4ca6 803f 26b3 7d3f 0806 7e3f
00000070: 294c 7f3f 2951 803f 6d2a 813f f028 7e3f

bias f4 [32]
0.004134106 -0.0092110075 -0.0014863923 -0.002048974 -0.0041562477 0.003605944 -0.006116964 0.0029441332
-0.0033043611 -0.0039783004 -0.005869301 -0.014593563 0.009302553 -0.00885906 0.0025873233 -0.00674691
0.0039149984 0.0024853148 -0.014573032 -0.0026210903 -0.003176832 -0.0026437296 -0.010572426 0.005602455
-0.00097485125 0.0031840766 -0.003901896 0.0016981297 0.0028246795 0.017736554 -0.0048376643 0.0075988974
00000000: 6577 873b c4e9 16bc 0dd3 c2ba 1448 06bb
00000010: 2231 88bb b451 6c3b d070 c8bb 5cf2 403b
00000020: fb8d 58bb 675c 82bb 4453 c0bb d719 6fbc
00000030: bc69 183c 9725 11bc 1590 293b 2f15 ddbb
00000040: 6349 803b aae0 223b bac3 6ebc 99c6 2bbb
00000050: 6632 50bb 6c42 2dbb f837 2dbc cd94 b73b
00000060: 298d 7fba f1ab 503b f4b6 7fbb c793 de3a
00000070: 421e 393b 404c 913c 4585 9ebb 2c00 f93b

running_mean f4 [32]
0.20634943 -0.035384785 0.13284431 -0.022491701 0.124032795 -0.16045067 -0.12088896 0.12698808
0.15854624 0.16132909 0.26297587 0.114872575 -0.10316417 -0.13303879 0.1633343 0.106970966
0.22572449 -0.04092499 0.09011364 0.13732362 0.1252587 0.00020826388 0.075819336 -0.12616448
0.16402723 0.16062708 -0.029017167 -0.030176334 -0.008611239 -0.17695792 0.17431982 -0.05022924
00000000: 444d 533e a3ef 10bd 5708 083e 8440 b8bc
00000010: e804 fe3d 2e4d 24be a294 f7bd 2a09 023e
00000020: f259 223e 7433 253e c6a4 863e 5042 eb3d
00000030: bd47 d3bd 523b 08be 1b41 273e 9813 db3d
00000040: 5224 673e f6a0 27bd 808d b83d 909e 0c3e
00000050: d143 003e 6961 5a39 2b47 9b3d 4331 01be
00000060: c1f6 273e 6d7b 243e 69b5 edbc 5c34 f7bc
00000070: 2716 0dbc 7534 35be e580 323e 2dbd 4dbd

running_var f4 [32]
0.7436771 0.25053415 0.65356195 0.26150644 0.14983264 0.6007738 0.16121794 1.038074
0.29500934 0.20171684 0.6692749 0.39591783 0.07014735 0.2219147 0.84082556 0.27244112
0.6564741 0.6495203 0.19267702 0.4395302 0.4215234 0.13326727 0.23450257 0.7113273
0.42551002 0.14783904 0.14914402 0.16233201 0.5838159 0.4755094 0.19610474 0.6537299
00000000: 9f61 3e3f 0346 803e d64f 273f 2ce4 853e
00000010: ba6d 193e 50cc 193f 5116 253e 9cdf 843f
00000020: 770b 973e dc8e 4e3e 9a55 2b3f beb5 ca3e
00000030: 6aa9 8f3d 9b3d 633e 5840 573f 677d 8b3e
00000040: b00e 283f f646 263f 204d 453e 1a0a e13e
00000050: ead1 d73e 3777 083e 7121 703e 8c19 363f
00000060: 73dc d93e 1e63 173e 36b9 183e 5d3a 263e
00000070: f574 153f f875 f33e aecf 483e d85a 273f

weight f4 [32, 32, 3, 3]
0.016563207 -0.021406598 0.019174254 -0.0063116974 -0.016973091 -0.03019522 -0.010802697 -0.054457337
0.043292064 0.014353344 -0.029996365 0.004156286 0.035896778 0.043631233 -0.037780743 0.010261669
-0.05121343 -0.016198434 0.0069517195 0.011896769 -0.050501447 -0.018140715 -0.058345515 0.020966886
0.025256079 -0.017038701 0.004522792 -0.028509825 -0.02105016 0.011348934 -0.014713166 0.01856114
0.03805042 0.0466368 -0.051324163 -0.05749803 0.048639048 0.049838066 0.0043739327 -0.015480659
-0.016336534 -0.017126717 -0.058811747 -0.031840637 0.014160077 0.02154445 -0.061951265 -0.008948728
-0.048393525 -0.028682433 0.04725355 0.027756114 -0.021844761 -0.053435646 0.003128802 -0.05318127
-0.027626619 -0.024751648 0.01807663 0.046818767 -0.009139078 0.014686386 0.04226149 0.015357924
-0.060766175 -0.054559197 0.017176505 -0.06487182 -0.037383575 0.035252225 -0.02197516 0.0039016402
0.021284044 -0.008489477 0.030378511 0.036303215 -0.02294871 0.003783074 -0.022450589 -0.049905505
-0.033737086 1.8499917e-05 -0.010923572 0.03724592 0.0004957924 -0.020423604 -0.026324436 -0.06474855
0.0084643345 0.046288494 -0.020642247 0.020403221 -0.03707212 -0.062117282 0.040825214 -0.02053672
-0.032349315 -0.013343062 -0.03324305 -0.014168368 -0.0016198789 0.013566723 -0.03285759 -0.04828125
0.03903865 0.012614878 -0.006461708 0.018741872 0.03130726 -0.025605703 0.051516443 -0.051920954
0.049897328 0.0060664685 -0.06689502 0.003995519 0.04109065 0.042010687 0.004460181 0.017311033
-0.05491102 -0.047009893 0.047369618 -0.02957893 -0.015227878 0.06276788 -0.008555144 -0.023718076
0.019176304 -0.054387975 -0.035830397 -0.044753753 -0.05915305 0.008149331 -0.025888376 0.023465144
0.0302349 0.00089075085 -0.038683355 -0.02857824 -0.039676953 0.0034075293 -0.06770038 0.0068487287
-0.047533352 -0.06008117 -0.037212756 -0.050753072 -0.065581664 -0.0123229595 0.03429528 -0.0034887316
-0.030904708 0.03877979 0.024634566 -0.05636843 0.02841764 -0.059979912 -0.056668974 -0.054091074
-0.0011673411 0.019849883 -0.04738003 -0.04450329 -0.0049229786 0.008587363 0.045928065 -0.011848795
0.029516865 0.027651431 -0.023855267 -0.035995394 -0.051191922 0.019061957 -0.06679167 0.027179271
-0.013116821 -0.062374774 0.034525413 -0.042734552 -0.028227743 0.0061148354 -0.035053916 -0.04836235
-0.047912743 0.04439598 -0.060411654 -0.032729216 -0.013341047 -0.01757146 -0.0066906083 0.006523268
-0.014387561 -0.05973011 0.03784651 0.023002846 -0.028041016 0.04524693 0.014861271 -0.04129694
-0.028084721 0.053399645 0.028798878 -0.019144448 -0.048656832 -0.042443443 0.015483564 0.031311177
0.012309752 -0.041694272 -0.046556246 -0.03669931 -0.026034635 -0.027462445 0.005834246 -0.0058438093
0.02448346 0.013775336 0.016326835 -0.022870682 -0.03344359 -0.010881067 0.043726657 0.042194225
-0.048949238 -0.0014547901 -0.03809029 0.04379775 0.0040115337 -0.0006599748 -0.026100526 -0.019325268
0.034127016 -0.042650063 0.015627883 -0.03755061 0.049419317 -0.06563092 -0.020974873 0.026686244
0.04718973 0.02236745 0.021050079 0.039144725 -0.030169657 0.053307407 0.0015817031 -0.02589925
-0.0015867356 -0.006534865 -0.049385298 -0.005371671 -0.009779152 -0.0017678472 0.020917993 -0.046400808
00000000: 90af 873c e45c afbc 5313 9d3c 5bd2 cebb
00000010: 270b 8bbc f75b f7bc ccfd 30bc a80e 5fbd
00000020: 0553 313d 4a2a 6b3c f0ba f5bc 7431 883b
00000030: 8008 133d aab6 323d fbbf 1abd 8f20 283c
00000040: 2cc5 51bd 94b2 84bc 40cb e33b aaea 423c
00000050: 9bda 4ebd d69b 94bc b5fb 6ebd bfc2 ab3c
00000060: d6e5 ce3c bf94 8bbc ee33 943b 708d e9bc
00000070: 6371 acbc e1f0 393c 7e0f 71bc 880d 983c
00000080: c2da 1b3d 3b06 3f3d 4939 52bd 0e83 6bbd
00000090: bd39 473d 0023 4c3d 3553 8f3b 97a2 7dbc
000000a0: 32d4 85bc 544d 8cbc 96e4 70bd 546b 02bd
000000b0: abff 673c fd7d b03c 9cc0 7dbd b09d 12bc
000000c0: 4a38 46bd 6cf7 eabc f08c 413d ca60 e33c
000000d0: c9f3 b2bc 56df 5abd 960c 4d3b 9ad4 59bd
000000e0: 3851 e2bc f8c3 cabc 7115 943c 09c5 3f3d
000000f0: 12bc 15bc 2b9f 703c 621a 2d3d cd9f 7b3c
00000100: f4e5 78bd 7779 5fbd beb5 8c3c 84db 84bd
00000110: 851f 19bd a364 103d 4005 b4bc a9b2 7f3b
00000120: e05b ae3c 7317 0bbc 5bdc f83c aeb2 143d
00000130: effe bbbc 73ed 773b 4cea b7bc b769 4cbd
00000140: e62f 0abd 4530 9b37 c8f8 32bc 2e8f 183d
00000150: 11f8 013a 674f a7bc 58a6 d7bc e39a 84bd
00000160: fead 0a3c 0199 3d3d ee19 a9bc a824 a73c
00000170: efd8 17bd b16e 7ebd 5738 273d a03c a8bc
00000180: b780 04bd dc9c 5abc dd29 08bd 7122 68bc
00000190: 1e52 d4ba f646 5e3c ae95 06bd 8fc2 45bd
000001a0: fee6 1f3d a2ae 4e3c bcbc d3bb 8e88 993c
000001b0: 0b3c 003d 0dc3 d1bc e802 533d 11ab 54bd
000001c0: 2461 4c3d 3ac9 c63b 4200 89bd d8ec 823b
000001d0: ab4e 283d 6613 2c3d b626 923b decf 8d3c
000001e0: 61ea 60bd 728d 40bd a506 423d 834f f2bc
000001f0: 597e 79bc 728c 803d e02a 0cbc 694c c2bc
00000200: a017 9d3c edc5 5ebd e5c2 12bd b64f 37bd
00000210: 784a 72bd c684 053c dc13 d4bc f939 c03c
00000220: 2eaf f73c 4781 693a 7072 1ebd ea1c eabc
00000230: 4d84 22bd db50 5f3b 7fa6 8abd 4d6b e03b
00000240: 55b2 42bd ac17 76bd 676c 18bd 74e2 4fbd
00000250: ae4f 86bd 3de6 49bc 3579 0c3d 34a3 64bb
00000260: df2b fdbc 8fd7 1e3d 6ece c93c 95e2 66bd
00000270: 1ccc e83c 7fad 75bd ba1d 68bd 9a8e 5dbd
00000280: 7801 99ba 399c a23c 9011 42bd 1549 36bd
00000290: f050 a1bb 03b2 0c3c 111f 3c3d 7321 42bc
000002a0: 5acd f13c 4185 e23c 1f6c c3bc e86f 13bd
000002b0: 9fae 51bd d227 9c3c 12ca 88bd 10a7 de3c
000002c0: efe7 56bc b17c 7fbd 856a 0d3d 6d0a 2fbd
000002d0: de3d e7bc f55e c83b b294 0fbd 9917 46bd
000002e0: 2740 44bd 8fd8 353d 3672 77bd 120f 06bd
000002f0: 6894 5abc 06f2 8fbc e43c dbbb 23c1 d53b
00000300: ceb9 6bbc 8fa7 74bd f104 1b3d 7770 bc3c
00000310: 46b6 e5bc d854 393d b07c 733c fb26 29bd
00000320: ee11 e6bc 96b9 5a3d a0eb eb3c d1d4 9cbc
00000330: 634c 47bd 2dd9 2dbd c6ae 7d3c 2640 003d
00000340: d8ae 493c 9dc7 2abd c3b1 3ebd 0452 16bd
00000350: 9646 d5bc ecf8 e0bc 342d bf3b 6d7d bfbb
00000360: 8991 c83c f2b1 613c dbbf 853c 4c5b bbbc
00000370: 25fc 08bd 8146 32bc b91a 333d dad3 2c3d
00000380: ff7e 48bd a8ae beba 9004 1cbd 4565 333d
00000390: 2f73 833b 2902 2dba c5d0 d5bc 0650 9ebc
000003a0: c5c8 0b3d d5b1 2ebd 0c06 803c abce 19bd
000003b0: e96b 4a3d 8169 86bd 7fd3 abbc 1c9d da3c
000003c0: 054a 413d f13b b73c 3771 ac3c 3856 203d
000003d0: 5b26 f7bc de58 5a3d 2651 cf3a aa2a d4bc
000003e0: 03fa cfba 6c22 d6bb 3d48 4abd d804 b0bb
000003f0: bd38 20bc 1cb7 e7ba 365c ab3c c60e 3ebd

bias f4 [32]
0.05407887 0.014023198 0.012678504 0.043226507 0.04314221 0.036623605 -0.0065221954 -0.0013783332
-0.028227627 -0.023382267 -0.04331792 0.021398814 -0.054274436 -0.028150337 -0.018746357 -0.015566876
-0.009277792 -0.01756181 -0.034740265 -0.006803067 -0.0025863398 -0.0025730971 0.038518608 0.02638548
-0.052604277 0.036497008 0.05529987 -0.005772613 -0.046325117 -0.0023617286 -0.022555782 0.026991224
00000000: ce81 5d3d 8ec1 653c 80b9 4f3c 470e 313d
00000010: e3b5 303d a202 163d 24b8 d5bb 30a9 b4ba
00000020: a03d e7bc 2b8c bfbc 226e 31bd 914c af3c
00000030: df4e 5ebd 899b e6bc f691 99bc 360c 7fbc
00000040: e101 18bc c9dd 8fbc cf4b 0ebd 43ec debb
00000050: 957f 29bb 68a1 28bb b0c5 1d3d 5d26 d83c
00000060: 9577 57bd e37d 153d 1e82 623d 3028 bdbb
00000070: 68bf 3dbd 3bc7 1abb e7c6 b8bc b31c dd3c

weight f4 [32]
0.9891012 0.99007463 0.99290884 0.9939502 0.9934387 0.9906142 1.0060805 0.9950014
0.99266344 0.993532 1.0056874 0.9958315 1.0093312 1.0006299 0.9940507 0.9947971
0.99197495 0.9955524 0.9984642 1.0104628 0.99667746 0.9944431 1.0073308 0.99625474
0.9892175 1.0046637 1.0071343 0.99558765 1.0111161 1.0097529 0.9904831 0.9957757
00000000: bc35 7d3f 8875 7d3f 462f 7e3f 8573 7e3f
00000010: 0052 7e3f e498 7d3f 3fc7 803f 69b8 7e3f
00000020: 311f 7e3f 1d58 7e3f 5dba 803f d0ee 7e3f
00000030: c431 813f a414 803f 1b7a 7e3f 06ab 7e3f
00000040: 12f2 7d3f 86dc 7e3f 5a9b 7f3f d856 813f
00000050: 4126 7f3f d393 7e3f 37f0 803f 8d0a 7f3f
00000060: 5c3d 7d3f d298 803f c7e9 803f d5de 7e3f
00000070: 416c 813f 953f 813f 4d90 7d3f 28eb 7e3f

bias f4 [32]
0.00399264 -0.014083317 -0.009919312 -0.0030160395 -0.019164814 -0.010319866 -0.013663975 0.015411677
0.00039033976 0.006272602 -0.014015614 -0.0004495362 0.0023487334 0.008984938 -0.006154556 0.008049047
0.0010520793 0.01350614 -0.0049970048 0.0057388726 -0.009574813 0.008531043 0.0026930503 0.0034670006
-0.014010037 -0.009710799 0.0019102107 0.004494315 0.006767291 0.004466426 0.0005314143 0.010036216
00000000: b1d4 823b b6bd 66bc 9c84 22bc bfa8 45bb
00000010: 87ff 9cbc a814 29bc ddde 5fbc 4281 7c3c
00000020: 84a6 cc39 668a cd3b bfa1 65bc baaf ebb9
00000030: 35ed 193b 9035 133c 28ac c9bb 26e0 033c
00000040: ece5 893a db48 5d3c eabd a3bb 270d bc3b
00000050: addf 1cbc cac5 0b3c e37d 303b 9e36 633b
00000060: 5b8a 65bc 0b1a 1fbc 0960 fa3a 0c45 933b
00000070: 27c0 dd3b 195b 923b 9c4e 0b3a f16e 243c

running_mean f4 [32]
-0.40391257 -0.25792605 0.16135804 -0.045677606 -0.17397739 -0.17137419 0.25136063 -0.18793571
-0.28175023 -0.2054925 0.28013337 0.037735477 0.39351428 -0.28490484 0.11666593 -0.50016195
-0.3917827 -0.28380278 0.16138333 0.27653828 0.21203242 -0.2944426 0.46521237 -0.4050576
-0.25509882 0.33848456 0.22477429 -0.026378883 0.21511807 0.35356358 -0.39016858 -0.27802104
00000000: a1cd cebe e20e 84be 0b3b 253e 7118 3bbd
00000010: 2127 32be b77c 2fbe 57b2 803e 3872 40be
00000020: 9141 90be a06c 52be a46d 8f3e 8490 1a3d
00000030: b47a c93e 0cdf 91be 8cee ee3d 9d0a 00bf
00000040: be97 c8be 994e 91be ac41 253e 6d96 8d3e
00000050: 071f 593e 2ec1 96be 5130 ee3e b663 cfbe
00000060: 509c 82be d94d ad3e 3b2b 663e 8718 d8bc
00000070: e947 5c3e 4906 b53e 2dc4 c7be c658 8ebe

running_var f4 [32]
2.4496615 1.0670282 0.79453635 0.62239426 0.3159689 0.50151855 0.7259392 0.91758275
0.7628039 1.2629405 1.7033687 0.27816844 1.3751339 0.9132573 0.3533655 2.2470179
1.4718523 0.7547056 0.33876944 1.9923596 1.0973849 1.950214 2.5053062 1.7008412
0.43189487 1.3947742 0.60131276 0.33333677 1.1420152 1.6508592 2.498062 0.884752
00000000: 41c7 1c40 6194 883f bc66 4b3f 3b55 1f3f
00000010: adc6 a13e 8563 003f 27d7 393f b4e6 6a3f
00000020: 1e47 433f 09a8 a13f fc07 da3f 186c 8e3e
00000030: 6304 b03f 3bcb 693f 53ec b43e 24cf 0f40
00000040: a865 bc3f 6334 413f 3073 ad3e a405 ff3f
00000050: 1c77 8c3f 9da0 f93f f056 2040 2ab5 d93f
00000060: 5321 dd3e f687 b23f a2ef 193f 1eab aa3e
00000070: 8e2d 923f 5b4f d33f 3fe0 1f40 1b7f 623f

weight f4 [1, 32, 3, 3]
0.025095237 0.043361254 0.03557794 -0.0050761905 0.017170196 0.029250514 0.0057476223 0.017948678
-0.049969897 0.034690388 0.019414114 -0.024815906 0.029038765 -0.058711488 0.049437135 -0.030271273
0.006604848 -0.021752542 0.03470394 0.0066606547 -0.024836458 -0.04717763 -0.0028573915 -0.024084471
-0.010601785 -0.04174524 -0.004409326 0.04858633 -0.019703098 -0.04568139 -0.016264517 0.0074742963
-0.01416776 -0.041226942 0.023356197 0.013290727 0.048277155 -0.005256614 -0.005164106 0.0051170005
-0.051614586 -0.010407886 0.036535095 0.022629617 -0.036756486 0.0056157433 0.03486929 -0.019511536
0.011960902 0.030277347 0.022606203 0.037189286 0.0058192457 -0.04974756 0.04139802 -0.02752444
-0.04267818 -0.059984203 0.046356026 -0.05801272 -0.026292542 0.03351278 -0.009174455 -0.05159113
-0.04379345 -0.012542312 0.029578539 0.029135846 0.013396432 -0.009217528 0.033712987 -0.021382755
0.027799306 -0.045134906 0.0021480636 0.034153074 -0.008776572 -0.020020438 0.041242268 -0.012734098
-0.047023855 0.020487836 0.025406891 -0.020525346 -0.030455742 0.026583433 -0.046765674 -0.009151795
-0.0199489 0.025413197 -0.011708804 -0.0007041042 -0.01082262 -0.01614631 -0.026673628 -0.00823899
0.03252717 -0.06129129 -0.04823213 -0.03592023 -0.047546506 -0.015610876 -0.027769612 -0.02665781
-0.0005936813 0.05149981 0.017461924 0.03301038 -0.025968164 -0.06511581 0.0420866 -0.049070027
-0.038815532 0.04142156 -0.02447692 -0.022307897 -0.034826595 -0.047643032 -0.012761704 0.010395072
0.0058211945 0.014444931 0.035372857 0.0065592574 -0.005807314 0.05523172 0.0011011711 0.010074028
-0.027540838 -0.016620245 -0.036806475 -0.05840638 0.029843375 0.032095693 0.034459326 -0.04089776
0.0072789444 0.01002196 -0.0069536953 0.050438333 0.009325408 0.018753022 0.03195544 -0.00031227828
0.030277891 -0.005379919 -0.014845735 0.034379326 -0.053181037 0.03415139 0.035736755 0.00841179
-0.046364844 -0.007935721 -0.002481846 -0.056879748 -0.066371694 0.00090799906 0.031819988 0.035456154
0.013547074 0.019235589 0.0069853207 0.0400721 0.019870106 -0.03950149 -0.058891125 0.05506745
-0.033528697 -0.03888095 -0.03353052 -0.03912125 -0.061119705 0.045001045 -0.034542892 0.0051920027
-0.03390415 -0.040711373 -0.010575813 -0.04610792 -0.048630115 0.0027366297 0.002204559 -0.0153516615
0.0054806764 -0.035059653 0.01364306 -0.028264847 -0.039529342 -0.032348976 0.03946513 0.03858205
-0.060665824 0.05220611 0.04099924 0.0061221337 -0.061390135 0.04553273 -0.047093324 -0.054514986
-0.028376179 -0.025302067 0.03505474 -0.04663441 -0.022354024 -0.053557377 -0.033570487 -0.047278497
0.058154397 0.010587286 0.031548463 0.022012092 -0.05286186 0.018041559 0.028275002 0.055287614
0.02919023 0.008572822 -0.0013280289 0.00791804 -0.0468318 0.031353515 0.02689773 -0.03878559
-0.017296609 -0.05152519 0.022089524 -0.04588024 -0.05046156 -0.05256961 0.025076453 -0.025720933
0.02895877 0.02537523 -0.03163109 -0.01582911 -0.06551187 -0.057203062 -0.040867683 0.04022649
-0.011459361 0.032991685 0.037587486 -0.012835756 -0.059415825 -0.01418882 0.012365226 0.025244439
-0.013345947 0.020360202 -0.022933995 -0.00332417 -0.01573832 -0.016430099 0.01268449 -0.00038732996
00000000: 8794 cd3c 929b 313d 2dba 113d 2c56 a6bb
00000010: 83a8 8c3c c69e ef3c 8d56 bc3b 1b09 933c
00000020: 3cad 4cbd 8217 0e3d 590a 9f3c ba4a cbbc
00000030: b4e2 ed3c 757b 70bd 987e 4a3d 76fb f7bc
00000040: 7b6d d83b 6332 b2bc b825 0e3d 9f41 da3b
00000050: d475 cbbc 553d 41bd 1343 3bbb cc4c c5bc
00000060: 1cb3 2dbc 0ffd 2abd 1b7c 90bb 7602 473d
00000070: 6468 a1bc 691c 3bbd 2a3d 85bc f1ea f43b
00000080: e41f 68bc 95dd 28bd 7f55 bf3c 59c1 593c
00000090: 44be 453d ad3f acbb a937 a9bb 83ac a73b
000000a0: d169 53bd d685 2abc d3a5 153d bf61 b93c
000000b0: f88d 16bd 4504 b83b 1ad3 0e3d a8d6 9fbc
000000c0: a9f7 433c 3308 f83c a530 b93c cb53 183d
000000d0: 5faf be3b 19c4 4bbd f890 293d ef7a e1bc
000000e0: 51cf 2ebd ffb1 75bd d1df 3d3d bf9e 6dbd
000000f0: 7563 d7bc b244 093d 7450 16bc 3951 53bd
00000100: c360 33bd 457e 4dbc b14e f23c 4cae ee3c
00000110: b57c 5b3c 1d05 17bc a116 0a3d e32a afbc
00000120: 5fbb e33c 61df 38bd 87c6 0c3b 18e4 0b3d
00000130: 9ccb 0fbc e701 a4bc a7ed 283d aea2 50bc
00000140: 169c 40bd 1bd6 a73c 1d22 d03c c524 a8bc
00000150: 527e f9bc 80c5 d93c 5d8d 3fbd 69f1 15bc
00000160: e06b a3bc 562f d03c 49d6 3fbc a293 38ba
00000170: 5c51 31bc 4445 84bc a782 dabc d4fc 06bc
00000180: 363b 053d 930c 7bbd 0e8f 45bd 1721 13bd
00000190: 20c0 42bd c2c4 7fbc 197d e3bc 7b61 dabc
000001a0: 47a1 1bba 77f1 523d 4f0c 8f3c e435 073d
000001b0: 30bb d4bc 705b 85bd 0063 2c3d a7fd 48bd
000001c0: 09fd 1ebd a7a9 293d d283 c8bc 0dbf b6bc
000001d0: 55a6 0ebd 5725 43bd 7716 51bc 1850 2a3c
000001e0: b8bf be3b 6faa 6c3c 21e3 103d 0aef d63b
000001f0: 484b bebb a83a 623d 2c55 903a 890d 253c
00000200: 539d e1bc 2e27 88bc 63c2 16bd 873b 6fbd
00000210: 187a f43c c676 033d 3925 0d3d 6984 27bd
00000220: 3684 ee3b 2633 243c d3db e3bb 6d98 4e3d
00000230: 99c9 183c f09f 993c b5e3 023d 48b9 a3b9
00000240: 5709 f83c 084a b0bb 873b 73bc 56d1 0c3d
00000250: 5cd4 59bd 54e2 0b3d b460 123d 9bd1 093c
00000260: 10e9 3dbd d404 02bc 77a6 22bb bdfa 68bd
00000270: e2ed 87bd c906 6e3a ad55 023d 793a 113d
00000280: 8cf4 5d3c f493 9d3c 1ee5 e43b a422 243d
00000290: a2c6 a23c 50cc 21bd d237 71bd 688e 613d
000002a0: 6355 09bd a241 1fbd 4c57 09bd 9b3d 20bd
000002b0: a858 7abd 0453 383d d97c 0dbd ad21 aa3b
000002c0: 14df 0abd f8c0 26bd 2d46 2dbc a9db 3cbd
000002d0: 5f30 47bd 0759 333b 5d7a 103b 8985 7bbc
000002e0: 3f97 b33b b69a 0fbd 2487 5f3c ae8b e7bc
000002f0: 85e9 21bd 5c80 04bd 30a6 213d 3608 1e3d
00000300: ba7c 78bd 13d6 553d d2ee 273d 2e9c c83b
00000310: 3974 7bbd 8780 3a3d eee4 40bd 1b4b 5fbd
00000320: 2975 e8bc 4846 cfbc 8f95 0f3d b903 3fbd
00000330: c91f b7bc fb5e 5bbd 3581 09bd 19a7 41bd
00000340: 4e33 6e3d 4c76 2d3c f638 013d b452 b43c
00000350: ad85 58bd e4cb 933c faa0 e73c 4475 623d
00000360: 5920 ef3c 0675 0c3c 4111 aeba abba 013c
00000370: b4d2 3fbd 8b6c 003d a158 dc3c a4dd 1ebd
00000380: 9eb1 8dbc 140c 53bd 17f5 b43c ebec 3bbd
00000390: c8b0 4ebd 3b53 57bd 226d cd3c b5b4 d2bc
000003a0: f13a ed3c b7df cf3c 9a8f 01bd 0dac 81bc
000003b0: 162b 86bd c24d 6abd df64 27bd 88c4 243d
000003c0: 0bc0 3bbc 4a22 073d 56f5 193d 104d 52bc
000003d0: 025e 73bd 3978 68bc 8497 4a3c 6dcd ce3c
000003e0: f5a8 5abc 70ca a63c 13e0 bbbc 51da 59bb
000003f0: a6ed 80bc 6a98 86bc 9bd2 4f3c 8c12 cbb9

weight f4 [32, 1024]
0.007833091 -0.014316332 -0.0071489643 0.015720453 0.03257758 0.030296467 -0.009868433 -0.009795398
0.04469903 -0.016002975 0.008190029 -0.0012844773 -0.010767414 0.012018786 0.014394436 0.04026547
0.0027583288 0.015298981 0.009661353 0.028170181 0.010676646 0.0012368946 0.019282116 0.010993101
0.039612405 0.022119224 0.0013091165 0.0048226058 -0.011327984 0.033136703 0.013428343 0.021203497
0.046931557 0.02779833 -0.0066813924 0.024533844 0.031579472 0.022993889 0.00045074677 0.007055813
-0.0055258744 0.020085433 0.006518314 0.040355936 0.03550172 -0.00085825264 0.029315718 -0.014510502
0.029621428 0.0132661015 0.029840639 0.022760179 -0.01213759 0.035494454 0.040790007 0.015147413
0.011892778 0.014606815 0.028699642 0.024385499 0.04498907 -0.0049359985 0.031176781 0.026376884
0.04819017 0.014542669 0.0112474365 -0.005629386 -0.014829383 0.029785525 0.002552434 0.017050453
0.03210218 -0.011944318 0.045044694 0.009770964 0.04294386 0.037140384 0.03250024 0.030651001
0.010008652 -0.009453939 -0.014048709 0.011987025 -0.0066615683 -0.00029226593 0.014871373 0.036790557
0.020803243 0.0013112046 0.018006885 0.03616718 -0.006237089 -0.016406527 0.0014020101 0.0059885783
0.04870087 0.0011816279 0.044813428 0.03287364 0.00047276734 0.016884414 0.017403275 -0.014874712
0.016670603 0.024328077 0.01034848 0.015915396 0.04334677 0.022968091 -0.0004877081 -0.008554958
-0.022089705 0.028463108 0.02323304 -0.004002378 0.02706317 -0.0050601047 0.039492995 0.01735351
-0.012524165 -0.0037739752 0.037359588 0.011465538 0.021497993 0.0026132101 0.029308671 0.032909956
0.036041904 0.02693172 0.018973844 0.012350678 -0.0025640281 -0.010648042 0.011901552 -0.0064941435
0.025165439 0.040701274 0.0011752954 0.0021552974 0.03510558 0.02991533 0.028667565 -0.008053662
-0.013860963 -0.006094201 -0.0062138215 -0.001232208 -0.011666593 -0.0028746428 0.00067067624 0.0018572399
0.0404432 0.0018027808 0.018945485 0.0067625605 0.019046886 -0.0036486625 -0.00952757 0.0179538
0.0056497217 0.037860498 0.0270406 0.0040931166 -0.011734389 -0.017761372 0.011366741 0.04103565
-0.007505778 0.019554423 0.0017802693 0.03840353 0.029746056 0.023627503 0.035714526 0.023889352
-0.020621305 0.0070969304 -0.0002638505 0.020617465 -0.010630735 0.0349783 -0.018612677 -0.008366708
0.039470747 0.04265817 0.013304255 -0.009341542 0.030693064 -0.0081299 0.04250227 -0.0071197185
0.029688466 0.025430588 0.028652186 0.02933321 0.0084516555 -0.0061062453 0.019837819 0.002330295
0.0036933892 0.015934024 0.025710698 -0.012454464 0.033314236 -0.014170674 0.035410408 0.0152703915
0.024400985 -0.0062322887 0.027456705 0.019661201 -0.007360647 0.033176683 0.0075480477 -0.012249588
0.00020810761 0.007711327 0.017893825 0.024072522 0.02130435 -0.012362922 -0.00069196627 -0.008235591
-0.0009113569 0.024460346 0.021273226 0.008493553 0.0011638829 -0.0039173923 -0.0016193957 0.0015718023
-0.015945815 -0.0018750557 -0.0010827971 0.037025105 -0.0036634884 -0.010490548 0.027810905 0.030773023
-0.0032775244 0.004545569 0.026615195 -0.00868003 0.01857628 0.022228343 0.037108477 -0.011481327
0.014272574 0.002365686 0.034564607 0.02279722 0.011655013 0.019537011 -0.015558827 -0.002971289
00000000: 5d56 003c 0c8f 6abc dc41 eabb 2ec8 803c
00000010: 1270 053d 4c30 f83c 35af 21bc e17c 20bc
00000020: 5516 373d ac18 83bc 792f 063c e85b a8ba
00000030: cf69 30bc 71ea 443c a4d6 6b3c 68ed 243d
00000040: 14c5 343b 94a8 7a3c a74a 1e3c 27c5 e63c
00000050: 19ed 2e3c 4c1f a23a 87f5 9d3c 681c 343c
00000060: 9e40 223d 6033 b53c a996 ab3a f306 9e3b
00000070: 0299 39bc 5aba 073d 8e02 5c3c f5b2 ad3c
00000080: 4e3b 403d 53b9 e33c 95ef dabb 33fb c83c
00000090: 7a59 013d ae5d bc3c 3552 ec39 7334 e73b
000000a0: 6512 b5bb 358a a43c 9597 d53b 444c 253d
000000b0: 406a 113d 5cfc 60ba 8427 f03c 75bd 6dbc
000000c0: a3a8 f23c 105a 593c 5b74 f43c 8e73 ba3c
000000d0: bedc 46bc a262 113d 6c13 273d db2c 783c
000000e0: edd9 423c 6c51 6f3c 831b eb3c 19c4 c73c
000000f0: 7646 383d 28be a1bb 7366 ff3c 5614 d83c
00000100: 0e63 453d 6044 6e3c 2b47 383c b676 b8bb
00000110: f1f6 72bc c600 f43c bd46 273b 64ad 8b3c
00000120: 937d 033d 1ab2 43bc c980 383d 6516 203c
00000130: e7e5 2f3d 8420 183d f91e 053d cf17 fb3c
00000140: 54fb 233c b2e4 1abc 8e2c 66bc 3a65 443c
00000150: 4949 dabb 453b 99b9 0fa7 733c b2b1 163d
00000160: 906b aa3c badc ab3a 2d83 933c 0924 143d
00000170: 7f60 ccbb fb66 86bc a7c3 b73a d63b c43b
00000180: 907a 473d dae0 9a3a 498e 373d 83a6 063d
00000190: c2dd f739 2f51 8a3c 5091 8e3c 10b5 73bc
000001a0: ca90 883c ad4b c73c ac8c 293c 0161 823c
000001b0: 628c 313d 9427 bc3c 13b3 ffb9 182a 0cbc
000001c0: 78f5 b4bc 772b e93c 3753 be3c 6126 83bb
000001d0: 95b3 dd3c 3ccf a5bb 68c3 213d f328 8e3c
000001e0: 2832 4dbc cc54 77bb 5e06 193d f4d9 3b3c
000001f0: 8f1c b03c 6442 2b3b bd18 f03c 97cc 063d
00000200: ada0 133d e99f dc3c 096f 9b3c 805a 4a3c
00000210: 4109 28bb 2075 2ebc bafe 423c d3cc d4bb
00000220: c027 ce3c 61b6 263d 5f0c 9a3a e43f 0d3b
00000230: deca 0f3d fe10 f53c 3ed8 ea3c 82f3 03bc
00000240: 1819 63bc ddb1 c7bb 509d cbbb 0a82 a1ba
00000250: 3d25 3fbc 8164 3cbb 52d0 2f3a a16e f33a
00000260: c5a7 253d 494b ec3a 9033 9b3c 7898 dd3b
00000270: 3708 9c3c 661e 6fbb 8619 1cbc d913 933c
00000280: 4d21 b93b 9c13 1b3d 4084 dd3c 8d1f 863b
00000290: 9841 40bc 4c80 91bc 913b 3a3c ff14 283d
000002a0: 08f3 f5bb 9930 a03c ed57 e93a 054d 1d3d
000002b0: 00ae f33c 778e c13c 6549 123d 9ab3 c33c
000002c0: 03ee a8bc 5e8d e83b 6a55 8ab9 f5e5 a83c
000002d0: 892c 2ebc 6845 0f3d 9d79 98bc 8414 09bc
000002e0: 14ac 213d 55ba 2e3d 17fa 593c 440d 19bc
000002f0: 0570 fb3c 4633 05bc dc16 2e3d 874c e9bb
00000300: 3a35 f33c cf53 d03c fdb7 ea3c 334c f03c
00000310: d078 0a3c e616 c8bb ec82 a23c ddb7 183b
00000320: ca0c 723b 1288 823c 3e9f d23c cf0d 4cbc
00000330: 8274 083d 1d2c 68bc 810a 113d aa30 7a3c
00000340: 93e4 c73c 3a38 ccbb e2ec e03c 8710 a13c
00000350: 9531 f1bb 46e4 073d 9d55 f73b 7fb2 48bc
00000360: 7637 5a39 4daf fc3b 1296 923c bd33 c53c
00000370: 7686 ae3c da8d 4abc 1265 35ba 93ee 06bc
00000380: 20e8 6eba 1061 c83c 3045 ae3c 8b28 0b3c
00000390: 6e8d 983a 785d 80bb e741 d4ba ef04 ce3a
000003a0: cca0 82bc 6ec4 f5ba a4ec 8dba a3a7 173d
000003b0: 2317 70bb 8ce0 2bbc b2d3 e33c b517 fc3c
000003c0: bccb 56bb fff2 943b 1c08 da3c af36 0ebc
000003d0: 482d 983c 3718 b63c 0fff 173d 2d1c 3cbc
000003e0: 84d7 693c a009 1b3b 9e93 0d3d 3cc1 ba3c
000003f0: abf4 3e3c 150c a03c 73ea 7ebc f5b9 42bb

bias f4 [32]
0.037794214 0.004734791 0.022575146 0.032890417 -0.028206347 -0.013511096 0.012148676 0.009519268
-0.008705202 -0.007839606 0.036465168 -0.012404059 -0.011147657 -0.010174231 0.03767376 -0.021721488
-0.02322535 0.045671877 -0.0020020986 0.024969101 0.01086256 -0.012739058 0.05328034 -0.012393627
-0.010107115 0.016325671 -0.047969148 0.046355713 0.04272082 0.018368382 0.0150668 0.011340617
00000000: 1bce 1a3d 4e26 9b3b 83ef b83c 1ab8 063d
00000010: ff10 e7bc a55d 5dbc 3e0b 473c b4f6 1b3c
00000020: 43a0 0ebc b171 00bc 805c 153d 653a 4bbc
00000030: aaa4 36bc d1b1 26bc cd4f 1a3d 43f1 b1bc
00000040: 1743 bebc 6f12 3b3d a435 03bb 008c cc3c
00000050: e1f8 313c 7bb7 50bc 7c3c 5a3d a40e 4bbc
00000060: 5098 25bc 6abd 853c 4c7b 44bd 7ddf 3d3d
00000070: 07fc 2e3d 4a79 963c bdda 763c ffcd 393c
