checkpoints/SRNN/model_acnn.pth (torch, 451371 bytes, 60 tensors)

weight f4 [16, 1, 3, 3]
00000000: 1041 45be 98d5 203e 8e9a c23d 84f4 07be
00000010: 3b07 97be b674 18be 6337 ae3d faaf 60be
00000020: 5940 85be 89c5 553e 02b7 4cbe d0a9 60bd
00000030: 87eb 533d 0b06 c6bc c574 123d 8b98 a03e
00000040: 2098 28be f792 a8be 96e9 07be 443c 973e
00000050: 7082 35be 6551 82be b729 6d3d e447 1bbe
00000060: 9023 2cbe 4bdb a93d 17b4 82bc e6ec a63e
00000070: 27c1 403d 5eb4 513e d310 203e 84a9 11bd
00000080: c270 88bb 9b4f 5f3e 8b91 d7bd f307 333e
00000090: 77e3 a53e a10b f2bd b6a9 4d3d 33b1 a2bd
000000a0: 14ef 623e cd37 d63d 3e95 113e 9440 7e3e
000000b0: e5d5 a73d 206d 5abe 67e2 83be 403f 74be
000000c0: 9753 523e 626c c0bd 7a46 743e 882f 6c3d
000000d0: e8b9 ebbd b486 a5be 18b6 84be 312b 2c3e
000000e0: f032 9a3e 35c8 74be 8480 4abe 5c32 96be
000000f0: 704f 91be c2ef 403d 1988 be3d 9431 bf3d
00000100: d851 f8bd d8a4 e93d acf5 1ebd e796 99be
00000110: 245d a83e f42b e8bd ec7e 6c3e 55b2 d6bd
00000120: 6487 ccbc 7ec7 5f3e 2147 b43d e25e bebd
00000130: e3c9 15be a78d 2ebe 0d46 04be f79d aabe
00000140: fb88 9e3d df4a 1d3e 24b2 a13e 0847 d9bd
00000150: 9d97 37be 822d 73be 5407 a9be f34d 82be
00000160: 98ae 9cbe 50f9 88bd ecd9 633e aa25 36bc
00000170: 5b6e 713e 7a67 a53c 68ab 4ebd 8f04 a1bc
00000180: 76bc 8cbd 0be5 5fbe 4aea 9b3e 6d29 853e
00000190: 519d 94be facc ef3b 5af0 08be c131 093e
000001a0: d811 00be 794f 0f3e e91a 3c3e 84f4 f4bd
000001b0: 9052 bfbd 035d 21be 3233 713e f00d 2f3c
000001c0: a669 6a3e 23c1 553d f6f9 3c3d 3caf 0dbe
000001d0: c566 90be 57cc c4bd 67f4 94be 106f 4c3e
000001e0: af72 f1bd f137 a73e d4c2 0bbd ff3f 163e
000001f0: 3aa6 9c3e f42b cfbc ed37 91be 757b a33c
00000200: a0fc 89be 2ba4 44be 6f84 343e 7afc fd3d
00000210: 2c57 813d ec79 47bd 838b 48bd 3c43 8cbe
00000220: 67bb 1b3d 9e31 d0bd a4ae 2d3e d75d 6e3e
00000230: c14b c9bd 6185 903e 1fa4 2d3e bfc1 a23e
-0.192631 0.1570648 0.09502135 -0.13276869 -0.29497704 -0.14888272 0.08506658 -0.2194213
-0.26025656 0.20876135 -0.19991687 -0.054849446 0.05173829 -0.024172803 0.03575589 0.3136638
-0.16464281 -0.32924625 -0.132727 0.29538167 -0.17725539 -0.25452724 0.05790111 -0.15164143
-0.16810441 0.0829378 -0.015955014 0.32602614 0.047059204 0.20478961 0.15631418 -0.035562053
-0.0041638324 0.21807711 -0.10525807 0.17483501 0.32400104 -0.11818624 0.050210677 -0.07943954
0.22161514 0.10459862 0.14217088 0.24829322 0.08195094 -0.2133069 -0.2575867 -0.23852253
0.205397 -0.093956724 0.2385501 0.057662517 -0.11510068 -0.32329333 -0.25920177 0.16813351
0.30116987 -0.23904498 -0.19775587 -0.29335296 -0.28380919 0.04710365 0.09303302 0.09335628
-0.121249855 0.114083946 -0.03880851 -0.29997942 0.3288356 -0.113365084 0.23095292 -0.10483233
-0.024966903 0.21853444 0.08802629 -0.09295441 -0.14627795 -0.17046224 -0.12917347 -0.33323643
0.07740971 0.15360592 0.31581223 -0.10609251 -0.1792893 -0.23747829 -0.33013403 -0.25450096
-0.30601954 -0.066881776 0.222511 -0.011117378 0.23577254 0.020190943 -0.050456434 -0.019655494
-0.068718836 -0.21864717 0.30452186 0.26008168 -0.29026273 0.0073181363 -0.13372937 0.13397886
-0.12506807 0.1399516 0.1836964 -0.119607 -0.093419194 -0.15758137 0.23554686 0.010684475
0.22891864 0.052186143 0.04613682 -0.13836378 -0.28203407 -0.09609287 -0.29092714 0.19964242
-0.11789452 0.32659867 -0.03412135 0.1467285 0.3059557 -0.025289513 -0.2836298 0.01995633
-0.2695055 -0.1920325 0.17628644 0.12401672 0.06315455 -0.048700258 -0.048961174 -0.27395046
0.038020518 -0.10165714 0.16961151 0.23277985 -0.09828902 0.2822676 0.16957138 0.31788442

bias f4 [16]
00000000: fe7b 193d 66ef 4fbe 36d3 623d a98f a03e
00000010: a5cf eebd 5d6c 96bd 067d 8a3d fab5 623d
00000020: 0636 8ebe 31dc a7be b19a a8be fa34 3c3e
00000030: 57bc 05be 06e5 f1bc 86cb aabe 19e4 89be
0.037471764 -0.20306167 0.055377208 0.31359604 -0.11660699 -0.073448874 0.067621276 0.055349328
-0.27775592 -0.3278518 -0.3293052 0.18379584 -0.13060127 -0.029528152 -0.333584 -0.26931837

weight f4 [16]
00000000: a152 7e3f a997 7e3f 2ebe 803f 05d3 803f
00000010: c692 7e3f 4578 7f3f a964 7e3f 3074 7e3f
00000020: 528b 7e3f a873 7e3f a0be 7e3f 6bb8 803f
00000030: 0ca4 803f 51c9 803f c953 7e3f 4a59 7e3f
0.9934483 0.99450165 1.0058038 1.0064398 0.9944271 0.9979289 0.99372345 0.9939604
0.99431336 0.9939523 0.9950962 1.005628 1.0050063 1.0061437 0.99346596 0.99354994

bias f4 [16]
00000000: da0f c2bb 62d4 093c cdb6 373c eb17 02bc
00000010: c9da cdbb 2b80 af3b dbe6 d7bb 389d ebbb
00000020: 2c20 bbbb ac87 2bbc d592 c6bb 6d17 17bc
00000030: c028 923b 33e5 21bb 9f8b cdbb c899 d7bb
-0.0059223 0.008412452 0.011213017 -0.007940273 -0.0062821847 0.005355855 -0.0065887994 -0.007190373
-0.0057106223 -0.010469358 -0.006059984 -0.009221894 0.004460424 -0.0024703264 -0.0062727476 -0.0065796115

running_mean f4 [16]
00000000: 8c06 e9bc 50fa 5bbe 909d b23c 27ec c43e
00000010: 36db 3cbd 7afc 01be 33bc a03c 011a 7d3d
00000020: df33 a1be 4549 cdbe ce41 99be 545f 403e
00000030: f3fa 0cbe 6585 e339 53ce bbbe 9e49 5dbe
-0.028445505 -0.21482205 0.021803647 0.3846142 -0.046107493 -0.12693968 0.01962099 0.061792377
-0.31484887 -0.40094963 -0.29933017 0.18786365 -0.13767605 0.000433962 -0.3668085 -0.21610114

running_var f4 [16]
00000000: 7cc0 043e 7d20 053c cf05 0a3d 238b 163e
00000010: be81 153e 2e76 ae3d 1d6f 933d 0144 2a3b
00000020: 2617 303d 6991 253e c31a e03c 887f 113b
00000030: f9ec 363b 8040 ef3c 763e 083d 56d4 b33d
0.12964052 0.008125422 0.033696946 0.14701514 0.14600274 0.08518635 0.071989276 0.0025980475
0.042990826 0.16168751 0.027356511 0.0022201259 0.0027912243 0.02920556 0.033262692 0.08780734

weight f4 [16, 16, 3, 3]
00000000: 779e 9f3d 25db a3bc d3c9 adbd 690f 0c3c
00000010: bad1 ddbc 7e0d 543d e302 f73c d3ec 86bd
00000020: 1bb2 27bd 791a 7b3a b214 76bc f74e 9d3d
00000030: a395 5d3d 4d2c 443d f38e 0b3d ad78 70bc
00000040: 814d 73bd c843 91bc 7b6b 9fbd 1199 2c3b
00000050: 1833 ba3c 4d2f 86bc 8842 a73d 05c2 59bd
00000060: 3f80 493d fdf6 41bd 6699 b83a 2de0 4b3d
00000070: 52ee c6bc 8261 933b c03e 6cbd 420e eb3c
00000080: d52c 443d 1c78 e3bc c903 72bd 324d 63bc
00000090: cedf 6fbc 1214 633d d65e ae3b 0f33 90bc
000000a0: a8d5 0bbc 8e93 803c 8b3d 06bd 6f9c 79bd
000000b0: a56a 633d 2a2c 2c3d b020 a23d 03dd 9abd
000000c0: d90c a3bd a967 203c 13ca 4a39 e6c8 2f3d
000000d0: 3340 45bc 9bdd cfbc 309e cfbb fe04 63bd
000000e0: a792 063d 4f7d 9b3d 33c8 e9bc bd86 843d
000000f0: cfa2 adbd ff16 2c3d 2727 08bc e8c9 03bd
00000100: fc0c 2d3d 3ace 63bd af16 993a 68b5 09bb
00000110: 9baa 9e3d b5e1 af3d b309 7f3d 2cf8 8a3d
00000120: 85b0 413d 2f1f b23d 8855 a6bd 076e 8e3d
00000130: 443d 9ebd 7383 78bd 48d9 033d e045 ea3b
00000140: 337f 8bbb 4aac 873d 5192 053b 614b 1c3d
00000150: 78c9 f5bc 71ea 66bd 81b1 903d 93b7 713d
00000160: e328 893d f571 823d 3836 2d3d 8002 dfbc
00000170: 7744 9ebd e39e 97bd 6e37 b1bc e79a 423d
00000180: 9f38 a93d 7806 d93c b1cc 193d 5d20 00bc
00000190: e00f 6abd aa1e 02bd d02c 1bbd d543 b03d
000001a0: 8ef6 5cbd 8266 02bd c71c 593d 8ee3 9a3b
000001b0: cd77 fc3c 5bdf 6ebd 8b6c 88bc 6c07 edbb
000001c0: bd13 6fbb cb01 25bc 3009 043d db1e 52bd
000001d0: 670d 0a3d ca01 72bd 75b5 1bbd 870a 7ebc
000001e0: a7e7 7b3d 052e 86bd 9f9e 86bd 06cb 42bc
000001f0: 3b78 ddbc 0072 003d 1950 91bd f4a2 71bd
00000200: b173 fcbc 15ea dfbc 52b3 52bd 50c5 7ebc
00000210: 93a8 eebc 0a23 b9bc 0051 763c 4175 98bd
00000220: 77d8 2e3d ac80 38bd b76c 46bc 3f40 13bd
00000230: 087d 9b3d 541b 99bd 0d22 283d a5ce a83d
00000240: cbaf 5c3d 4f9b 653d 5d08 08bd e809 13bd
00000250: 9155 513d 2e1b 4fbc d265 eaba a72b 6ebd
00000260: f40a 91bd 9ef5 15bd 0092 3cbd f730 0a3d
00000270: 5049 a6bd d61b d4bc 0fe1 73bd c190 fd3c
00000280: ce4e fabc 44e9 853d 89f1 0bbd f94d 8e3d
00000290: cea7 8ebc 4baf 9b3c 727d 43bd b340 213c
000002a0: db95 293d 15e7 75bc 3f75 803d d07f 91bd
000002b0: 90ee 24bd ee92 5abd f515 e8bc 0ba2 22bd
000002c0: e3ce 2cbd fa70 333c 190f 0cbd db64 013d
000002d0: 46c4 ae3d 4759 55bd e7e2 75bd ec77 003d
000002e0: 2f77 8ebd 9c01 8bbd 7e0b a7bc f5e1 13bd
000002f0: 6d9f d83b 5661 b73b 8acc afbb f946 8c3d
00000300: 0dc5 523d 13be 833d 8d23 933d e418 86bd
00000310: 71c9 efbc 74f1 cebc a76d 28bd eb01 ed3b
00000320: 1400 17bb 6a0e 943d a749 43bd aba6 a5bd
00000330: db20 763c 99fc 0c3c 0423 203d 09e2 133d
00000340: ec31 d5bc c317 963d 21f2 68bd ca28 9ebd
00000350: e036 4abd 364c 8d3d 79a1 94bc 93a2 a3bd
00000360: 65a8 953c 196a 473c 1700 5bbd aa40 923c
00000370: 22b8 363d f45a 98bd 27af 4fbd 412d 2cbd
00000380: 42c9 94bd 8cfe 873d 6093 6fbc 4a21 1a3d
00000390: bae5 5fbd 3546 42bd 1305 283c cf9b 0abd
000003a0: 0f0b 933d 2962 513d f04c 89bd 1726 6fbc
000003b0: 92e4 1ebd b756 373d c2d0 423d 7029 803c
000003c0: 24a5 aabd 2c7f 23bc 323c 9cbb c397 913d
000003d0: fa0d 80bd 51c3 993d 0945 d93c 6dba 62bd
000003e0: 3767 ae3d f0df 703b 577d 613d bcae bd3b
000003f0: 3ace 6dbd 4716 fb3c 0425 86bd 1bba 893d
0.07793897 -0.020001957 -0.084857605 0.008548596 -0.027077544 0.05177068 0.030152744 -0.065881394
-0.04094134 0.0009578835 -0.015019583 0.07681077 0.054097783 0.04789381 0.034071874 -0.014677209
-0.059400085 -0.017732516 -0.07784172 0.0026336352 0.022729442 -0.016379977 0.08166987 -0.053163547
0.04919457 -0.047354687 0.0014083802 0.049774338 -0.024283562 0.004497708 -0.05767703 0.028693322
0.047894318 -0.027767234 -0.05908564 -0.013873385 -0.014640762 0.055439062 0.005321364 -0.017602472
-0.008534826 0.01569536 -0.032773536 -0.060940202 0.055521626 0.042034306 0.07916391 -0.07561686
-0.07961435 0.0097903395 0.000193395 0.0429162 -0.012039232 -0.025374224 -0.006335996 -0.055424683
0.032854702 0.0759226 -0.028537845 0.06471012 -0.08478319 0.04201412 -0.008310116 -0.032174975
0.04224871 -0.055616595 0.0011679734 -0.0021012668 0.07747384 0.08587972 0.06226511 0.06785616
0.047287483 0.08697354 -0.081217825 0.0695458 -0.07726529 -0.060672235 0.032189637 0.007149443
-0.0042571067 0.066246584 0.00203814 0.038157824 -0.030003294 -0.056375924 0.07065106 0.05901296
0.06697252 0.06369392 0.042288035 -0.027222872 -0.077279024 -0.07403352 -0.021632876 0.047511008
0.08262753 0.026492342 0.037548725 -0.007820216 -0.057144046 -0.031767525 -0.037884533 0.08606688
-0.05394607 -0.03183604 0.05300596 0.0047268337 0.030818844 -0.058318477 -0.01665332 -0.007233551
-0.003648027 -0.010071228 0.032235324 -0.051298957 0.033704188 -0.059083737 -0.038014848 -0.01550544
0.061500218 -0.06551746 -0.06573223 -0.011889225 -0.02703487 0.03135872 -0.070953555 -0.058993295
-0.030816885 -0.027333299 -0.051440544 -0.015549973 -0.029133117 -0.022599716 0.01503396 -0.074442394
0.042686906 -0.045044586 -0.012110881 -0.03594994 0.07592207 -0.074759156 0.0410481 0.08242539
0.053878587 0.056056317 -0.0332111 -0.03589812 0.051106993 -0.0126407575 -0.0017883128 -0.0581471
-0.07082167 -0.036611192 -0.046037674 0.033738103 -0.08119452 -0.02589218 -0.059540804 0.030952813
-0.030555155 0.065386325 -0.034165893 0.06948466 -0.017414 0.019004485 -0.047727056 0.009842086
0.04140268 -0.0150087075 0.06272363 -0.071044564 -0.040266573 -0.05336278 -0.028330782 -0.039705317
-0.04218949 0.010952229 -0.034194086 0.031590324 0.0853353 -0.052087095 -0.060030844 0.031364366
-0.06956326 -0.06787416 -0.020391222 -0.03610416 0.006610802 0.00559632 -0.005364959 0.068494745
0.051457454 0.06432738 0.07184515 -0.06547716 -0.02927086 -0.025261618 -0.041120198 0.0072328947
-0.0023040818 0.07229312 -0.047677662 -0.0808843 0.015022482 0.008605146 0.039095894 0.036104236
-0.026024781 0.07328751 -0.056871537 -0.07722624 -0.04936874 0.06899302 -0.018143402 -0.07989993
0.018268773 0.012171292 -0.053466883 0.0178531 0.044609196 -0.07439223 -0.050704148 -0.042035345
-0.072649494 0.06640348 -0.014622539 0.037629403 -0.054662444 -0.047430236 0.010255116 -0.033839997
0.07179844 0.051119003 -0.06704128 -0.014596484 -0.0387922 0.044760432 0.04756237 0.015644759
-0.08332279 -0.009979051 -0.004767918 0.071090244 -0.06252666 0.07507957 0.026522176 -0.05535357
0.085157804 0.003675457 0.055051174 0.005788652 -0.058058 0.030650271 -0.06550029 0.0672495

bias f4 [16]
00000000: aaad 1e3d d490 48bd ce96 5fbc 084a 4dbc
00000010: c9e1 36bd a72a 50bc 1d92 3bbd e8e4 883d
00000020: 5b2e 5bbc 5811 aebc dda0 1e3d 8cc6 23bd
00000030: 7f4d 583d a3c4 913d 2378 3abd 83de e8bc
0.038739838 -0.048966244 -0.0136467945 -0.012529857 -0.04464892 -0.012705482 -0.04579364 0.066842854
-0.013377751 -0.021248505 0.03872763 -0.03998427 0.05280828 0.071175836 -0.045524728 -0.028426414

weight f4 [16]
00000000: f7fb 7e3f cdf1 7f3f 163d 7e3f 9756 7e3f
00000010: 0418 813f 7bc5 803f b793 7d3f 4b6e 7e3f
00000020: d018 7e3f 63fa 803f 34e8 803f c39c 803f
00000030: 8511 813f bea4 803f e9a1 7d3f 6516 7d3f
0.9960322 0.99978334 0.9931196 0.99350876 1.0085454 1.0060266 0.9905352 0.99387044
0.9925661 1.0076412 1.0070863 1.004784 1.0083472 1.0050275 0.9907518 0.98862296

bias f4 [16]
00000000: 458d f0bb 5f52 84bb ecbc e6bb 69f1 a3bb
00000010: a79a 5fbb 9bc4 bd3b 4ccd ecbb 2145 ca3b
00000020: 840a c2b9 aee9 6ebb 31d7 c43b 8871 163c
00000030: c053 8f3b 2abf 00bc 1cf7 babb 3668 88b8
-0.0073410594 -0.0040381397 -0.007041564 -0.0050031436 -0.003411928 0.0057912595 -0.0072266217 0.0061727916
-0.00037010398 -0.0036455202 0.006007098 0.009182341 0.0043739974 -0.007858077 -0.0057057273 -6.504396e-05

running_mean f4 [16]
00000000: 28b8 9f3c 3d4e 4bbe 15f4 9d3d 8d6c 24bd
00000010: b90b be3d 7bc1 4a3e 77d5 2fbd f368 45bc
00000020: 22a1 8bbd ed81 5a3d a53d 4a3e cb69 973d
00000030: 1cdd 1c3e 3792 353e fbb5 9abd 547c 07be
0.019496992 -0.19854064 0.077125706 -0.040142585 0.0927958 0.1980037 -0.042928185 -0.012048948
-0.06817843 0.053346563 0.19750078 0.07393225 0.15318722 0.17731558 -0.07554241 -0.13231021

running_var f4 [16]
00000000: 4665 173d ae94 dd3e 0391 4c3e cee2 bd3d
00000010: df78 ed3d c628 fd3e 2f47 113e a864 5b3e
00000020: 4495 4f3d f9a1 c83d 9625 bc3d 8242 d93e
00000030: f176 673e bef0 a03e 9757 553d ade1 263e
0.036961816 0.43277496 0.19977193 0.09271775 0.1159532 0.4944517 0.1418731 0.21425116
0.05067946 0.09796519 0.091868564 0.42433554 0.22603966 0.31433672 0.052085485 0.16297026

weight f4 [32, 16, 3, 3]
00000000: 7832 2b3d 228f 353d d0a1 893d 2b34 b0bb
00000010: 5ac6 ce3c 5dcd 163c f43e 8bbc 992d 65bd
00000020: 9f3f 913c 95f0 733d 1b9b 123c 8124 893c
00000030: bc45 ae3d 469b 253c 0e8b 3ebd 00cd 54bd
00000040: 43f9 923d 7bbf af3d b2b5 3bbd e49c 683d
00000050: 661b fa3c 8194 a13b 5ec1 64bd ea12 0fbd
00000060: bfd9 7d3d 87b4 58bd 5322 97bd f3e7 94bd
00000070: 592d eebc e780 8d3d dd97 633d 0fe3 f83c
00000080: 8264 373d de91 0ebd 996b fcba a9b4 79bd
00000090: 5dd3 5c3a 59cd 07bc a17e a03d 4a41 aabd
000000a0: 1094 74bc 9773 b73d 1397 b43c 0e0c 723d
000000b0: 54da 6a3d f4f3 67bd ffb0 973d e3f2 ad3d
000000c0: 8c16 653d 1cc9 a3bc 6381 9d3d 8fb8 9f3d
000000d0: 4d53 7c3d 31c5 dbbb e3d8 8e3d 8588 9dbd
000000e0: 91da a13c ce80 c63b e339 89bb 613b 833b
000000f0: a302 73bd fc4c 153d 8746 cc3c 9174 263c
00000100: ee81 073d 13bd 163d 1162 a23d 48a3 0e3d
00000110: 63b0 86bd 6d5a c5bb ad20 2c3d 286d 42bd
00000120: 8e3f 893d f216 213d 7105 8f3d a2e9 f8bc
00000130: e615 febc e1d8 95bd 15c0 7abd f2ff a1bc
00000140: 27aa e73b 0202 15bd fa0c 853c 6458 0bbd
00000150: 95f8 1cbd 6e27 883d 28ed 823d 79de 4d3d
00000160: 62f7 a13d 70a4 80bd 0e88 67bb 33c3 85bd
00000170: 810f 693d bd84 663d 55b1 8abd 4927 80bc
00000180: 00cb 773c 3545 8e3d 42b6 743c ac3d 2d3d
00000190: c6d4 d03b 7b8b 3dbd 9e54 173d 2a68 d5bc
000001a0: a25e be3b cc78 79bc 4073 fdbc 4851 a43d
000001b0: 2c26 0fbd dbb2 a7bb 5ae6 613d 846c 61bd
000001c0: 843a b9bc 6454 8a3c f769 30bb ad2e 903d
000001d0: 12ec 90bd df04 803d ad4a aa3d 06a1 99bd
000001e0: 8c26 e6bc 8c88 883d 9edf 06bc c14b 8dbc
000001f0: 6f3e 773d e743 43bc 47a7 90bd 7c7b 113d
00000200: b73b 803b a486 993d 7cef 863d ae63 033d
00000210: 64a0 c2bb 55e6 5d3c f808 95bd 5307 b53b
00000220: 961a fb3c 5b52 e8bc d270 373d 1d9b 9e3d
00000230: e417 8d3d 5f29 72bd 4efd 8e3c 9370 a43d
00000240: e501 13bd cf5c 65bd ec7a b3bd f966 933d
00000250: b6be 89bd 750e a3bd d255 c43c 13a9 923d
00000260: ed0b 6ebd 34b5 68ba 76e7 183c af24 5a3d
00000270: 41eb 8e3d d843 f03c 2555 22bd 3ba0 0ebd
00000280: c41d c73b 5a7c 09bd b130 2abd 5503 8e3c
00000290: fb42 103c 2cb4 573d 6ea7 c03c fb72 febc
000002a0: 62e0 783d ca3d 563c 555e a6bd 2877 0bbd
000002b0: fdd0 883c ac35 763d 0e27 83bd d46a c73c
000002c0: 0ab7 8dbd 22d4 54bb a393 47bd a59a fbbc
000002d0: 099d a9bd 288a c1bc 99ad 94bd b5fc 4c3d
000002e0: 8327 e53c d02b 8e3d 2d05 aabd c5dd 903c
000002f0: 005b a8bd 9efe 31bd 8357 20bb 9482 84bd
00000300: 02db b6bd 03f2 383d f537 83bc 9249 713d
00000310: 0a12 92bd 8119 9e3d 444a 55bd 1b98 993d
00000320: fd15 883d 1057 10bc 5b58 84bd 3a0d 5e3c
00000330: eb81 04bd 3411 8b3d 1bcf 563d 1777 84bc
00000340: 5a30 243c 9b1c e33c 0d3c 33bd 7507 373d
00000350: 8664 573d 130c 073d 6a29 993d 830b 8f3d
00000360: 4526 333d 25d4 8dbd 2507 adbd e377 ae3d
00000370: 20c6 cf3c 9f33 9bbd 42b1 90bc af9b 733d
00000380: 49a6 463d 3e6d 413c 425b c538 3dea 033d
00000390: 498d 40bd 3182 5f3d e985 7a3d 5ded 79bc
000003a0: 22cd adbd d096 a8b9 c9c5 d73c 9794 063d
000003b0: ad14 743d 210c 963c 5eb7 37bd d68f 7bbd
000003c0: 81b0 e7bc 963d 913d 94ea 323c 4f4d fe3c
000003d0: 42f1 953d 1b56 623c aea0 acbd d777 2d3d
000003e0: d424 babc a8b6 323c 9c8d abbd 9915 6cbc
000003f0: 071e 91bd 0a1b 913d 2167 b1bc 0afc 81bd
0.041796178 0.044325955 0.067203164 -0.0053773127 0.025241066 0.009204236 -0.016997792 -0.05595169
0.017730532 0.05955561 0.008948113 0.01674104 0.085093945 0.010107821 -0.04651933 -0.051953316
0.07176449 0.08581444 -0.045827575 0.056790248 0.030530643 0.004931033 -0.05584847 -0.034930147
0.061975237 -0.05290654 -0.07379594 -0.07270803 -0.029074358 0.06909352 0.05556475 0.030381707
0.044773586 -0.03480708 -0.0019258141 -0.060963307 0.00084238296 -0.008288705 0.078366525 -0.08313234
-0.014927879 0.08957594 0.022044694 0.059093527 0.05733712 -0.056629136 0.07406806 0.084935926
0.055929706 -0.019993357 0.07690694 0.07798874 0.06160288 -0.0067068567 0.069749616 -0.07692055
0.01975754 0.006057835 -0.004187809 0.0040048813 -0.059328686 0.03645037 0.024935974 0.010159628
0.033082895 0.03680141 0.07928861 0.034823686 -0.06576612 -0.0060227425 0.04202335 -0.04746738
0.06701575 0.039328523 0.0698346 -0.030384842 -0.031016301 -0.07316757 -0.06121834 -0.019775365
0.0070698443 -0.036378868 0.01624154 -0.034019843 -0.038323004 0.066481456 0.0639289 0.050260995
0.07908513 -0.06281364 -0.0035328898 -0.06531372 0.05689955 0.056278933 -0.06772105 -0.015643733
0.015124083 0.06946794 0.014936032 0.042295143 0.006373021 -0.046275597 0.03694593 -0.026050646
0.005809621 -0.015226554 -0.030938745 0.08023316 -0.034948513 -0.005117757 0.05515132 -0.05503513
-0.02261091 0.016885944 -0.0026918629 0.07040153 -0.07076277 0.06250929 0.083150245 -0.07501416
-0.028094552 0.06666669 -0.008232025 -0.017248036 0.060362276 -0.011918045 -0.070631556 0.035518155
0.0039133686 0.07496384 0.06588647 0.032077484 -0.00593953 0.013543685 -0.07277101 0.0055245548
0.030652326 -0.028359583 0.04478533 0.07744429 0.068893224 -0.059121486 0.01745477 0.08029284
-0.03589048 -0.055996712 -0.0876368 0.07197375 -0.06725828 -0.07961742 0.023966704 0.071611546
-0.058116842 -0.0008877099 0.009332528 0.05325764 0.06978465 0.029329225 -0.03963198 -0.034820776
0.0060765464 -0.033565857 -0.041550342 0.017335573 0.008805032 0.05266206 0.023517337 -0.031060686
0.060760863 0.013076255 -0.08123461 -0.034049183 0.016701216 0.06010978 -0.064039335 0.024342932
-0.069196776 -0.0032475074 -0.04872478 -0.030713389 -0.08281905 -0.023625448 -0.072596736 0.050045688
0.027972942 0.0694195 -0.083017685 0.017683873 -0.08220482 -0.043455712 -0.0024466224 -0.06470218
-0.08928491 0.045152675 -0.016017893 0.058908053 -0.07132347 0.07719708 -0.05207278 0.07499715
0.06644819 -0.00880982 -0.06462165 0.013552958 -0.032350462 0.067903906 0.052443605 -0.016170068
0.010021294 0.027723601 -0.04375844 0.044684846 0.0525861 0.0329705 0.07478602 0.069846176
0.04373767 -0.06925229 -0.08448628 0.0851896 0.025363028 -0.07578205 -0.017662648 0.059474643
0.048498426 0.0118058305 9.41069e-05 0.03220581 -0.04700974 0.05456752 0.061162863 -0.015254346
-0.084863916 -0.0003215582 0.026339428 0.03285655 0.05959003 0.01831633 -0.044852607 -0.06141647
-0.028282406 0.07091825 0.010920186 0.031042723 0.07321407 0.013814474 -0.08429085 0.042350616
-0.02272264 0.010907806 -0.08376619 -0.014409446 -0.070858054 0.070852354 -0.021655621 -0.06346901

bias f4 [32]
00000000: ae7b 3abd a830 93bc bd10 e4bc 0001 74bc
00000010: fcf9 303d 3a76 4ebd 975f 043d 4aff 193d
00000020: 7b59 59bd 9b01 aa3d dabd a93c a4e3 1fbd
00000030: 9bf2 88bd e167 0fbc 54bc 883c d566 36bd
00000040: 2ea6 523d 3ede 883d a52c 93bd aab2 673d
00000050: 2762 163d a15f 663d ff4e 8cbd 9c20 4c3b
00000060: 5723 d03b 5971 a4bd d171 81bd b05a ce3c
00000070: a9aa 85bd eaac 86bd 85ae 5abd cc71 183d
-0.045528106 -0.017967537 -0.027840013 -0.014892817 0.043207154 -0.05040572 0.032317724 0.03759698
-0.05306385 0.083010875 0.020720411 -0.039035454 -0.06686898 -0.008752794 0.016691364 -0.044531662
0.051428013 0.06683014 -0.0718625 0.05656687 0.0367147 0.056243543 -0.06851005 0.0031147366
0.006351869 -0.08029432 -0.06320537 0.025189728 -0.065266915 -0.065759495 -0.05338909 0.0372179

weight f4 [32]
00000000: 97bc 803f 9352 7e3f 13d4 803f 783f 7e3f
00000010: eccc 803f 0341 7e3f fab2 7e3f 8a8c 7e3f
00000020: d290 7e3f 9fc2 803f 0455 7e3f 7077 7e3f
00000030: bfd4 803f ebeb 7e3f 20eb 803f 48a3 803f
00000040: 752a 813f 8fd8 803f 25ce 803f 405e 7e3f
00000050: 2e27 7e3f 4c61 7e3f ae5b 7e3f 907f 7e3f
00000060: 476e 7e3f 7d05 7e3f c228 7e3f 6d89 7e3f
00000070: 9d8a 7e3f 2ec9 803f 5973 7e3f b01c 7e3f
1.0057553 0.9934475 1.006472 0.99315596 1.0062537 0.9931795 0.99491847 0.99433196
0.9943973 1.0059394 0.99348474 0.99401 1.0064925 0.9957873 1.0071754 1.004983
1.0091082 1.0066088 1.006291 0.99362564 0.99278533 0.99367213 0.9935864 0.99413395
0.9938702 0.99227124 0.9928094 0.99428445 0.9943026 1.0061395 0.99394757 0.99262524

bias f4 [32]
00000000: fb5f 893b 4cd5 d9bb 5c34 b93b 15da 01bc
00000010: 2acb b93b 8789 17bc ac1b d53b eeba babb
00000020: 926f c1bb 690a 7f3b a429 e2bb 1a7e adbb
00000030: 5a78 f8bb d13c cf3b 4bf5 ae3b d3aa 13b9
00000040: 3a3e 31bc 431d c43b abea b73b afb6 4c3b
00000050: f6b1 ccbb 5353 47bc c15f 90bb aadb d03b
00000060: b50b 913b 3ab4 0ebc b9c4 c5bb e128 aebb
00000070: 04c8 d8bb 0edd 853b e5f9 ca3b 1922 cfbb
0.00419235 -0.0066477414 0.0056519937 -0.00792553 0.005669971 -0.009249098 0.006503543 -0.0056985533
-0.005903193 0.0038916117 -0.0069019366 -0.0052945735 -0.0075827064 0.0063243886 0.0053393 -0.0001408265
-0.010818059 0.0059849336 0.0056126914 0.0031236818 -0.0062468005 -0.012165862 -0.004405946 0.0063738422
0.0044264444 -0.008709962 -0.006035414 -0.0053149317 -0.0066156406 0.0040851897 0.0061943405 -0.0063212034

running_mean f4 [32]
00000000: 505d 4f3e 27d4 68bd 56ee 433e f3c2 26be
00000010: e39a 7f3e 589d fcbc 5109 48be cf3f 92bc
00000020: 9da2 0dbe 0294 6e3e cb43 cebd 5ad2 303d
00000030: 5209 70bb e9b7 51bd 4687 aabc 8975 8dbd
00000040: a72d b53d f9d3 4f3e 2145 a93c 4fee 7bbe
00000050: 1cad a53c 1f2c 573d 5807 84be bcbe c4bd
00000060: 87cd 24be 6783 25bc 824c f9bd b2f5 29bd
00000070: beb8 8abd c9b7 9a3c f2f0 40be 0d74 073e
0.2025044 -0.05684295 0.19133887 -0.16285305 0.24961428 -0.030836746 -0.19534804 -0.017852692
-0.13831563 0.23298648 -0.10071524 0.043169357 -0.003662665 -0.05120078 -0.020816457 -0.06907184
0.08846598 0.20295705 0.020662846 -0.24602626 0.020224147 0.05253231 -0.25786853 -0.09606692
-0.16094027 -0.01010213 -0.12172796 -0.04149408 -0.06773518 0.018886464 -0.18841913 0.13227864

running_var f4 [32]
00000000: f124 023f 60c5 9e3e 5e8b 853f 032e 153e
00000010: d4cc 8d3f 17c1 aa3e 6cb6 433f 74e0 283e
00000020: ca9c 0e3e 7304 bd3e 6952 ef3e 6180 953e
00000030: 7622 a43d 6f7f 583e f226 eb3d 9c42 033e
00000040: 4b06 ae3e bbd2 033f 7b5f e43d fa12 fe3d
00000050: 5d5e 3a3d cc64 d93d d6b5 033f 89c4 c33e
00000060: a3ae a13e e364 9a3d 43e1 5a3e d6d7 6d3e
00000070: 9e74 a03e 04c5 023f f1d7 5b3f 3f86 cb3d
0.5083762 0.3100996 1.0433156 0.14568333 1.1078134 0.3335044 0.7645023 0.16491872
0.13926998 0.36917457 0.4674256 0.29199508 0.080143854 0.21142362 0.114820376 0.12818378
0.33989176 0.51493424 0.11151024 0.12405963 0.045500148 0.106149286 0.51449335 0.38235882
0.3157855 0.07538774 0.21374993 0.23226866 0.31338972 0.5108187 0.85876375 0.09937715

weight f4 [32, 32, 3, 3]
00000000: 5006 ed3c 28db 70bc 3af4 b1bc 9919 51bd
00000010: d798 4cbd b6a1 63bd fdff 0fbd 9244 84bd
00000020: 865f c0bc 374e 5dbc c2f2 683c b558 6dbc
00000030: aca6 afbc 7c30 4bbd 846f 053d 7409 523d
00000040: 9e66 e1bb db4d fc3b 5724 303b 9002 f73c
00000050: c1ac 0dbd 371e 8ebc 5b9c a93c eac7 213a
00000060: 7dca 913c 4923 083b 9ac7 02bd 5e55 65bd
00000070: ff73 4b3d b716 0f3d 1931 f0bc 9e23 ca3c
00000080: 2717 3e3d 7049 dfbc 66da bfbc 3d3a e6bc
00000090: 0ff5 81bd 41aa e43c 7f69 a1bc f421 0d3d
000000a0: 7756 1abc e291 053b 6f80 7abd 56ce afbb
000000b0: 6d2b eebb 9905 5cbd 8ac1 00bd 37e3 2ebd
000000c0: 059c c2bc b0d8 073d ddbc 42bd 6984 91bb
000000d0: 185a 303d 0795 bdbc b641 37bd aae8 033d
000000e0: 3423 92bc 9017 c4bc 5055 dcbc 1d11 82bc
000000f0: 3d36 bb3c c9b0 b83c 3af4 aa3a cdf4 abbc
00000100: 1944 95bc ff70 4cbd bb8f 7cba 193d cfbb
00000110: c8dd 6bbb c2a7 543d 456d 2b3c 70d6 6dbb
00000120: 18c7 1abd 6563 023d 457a 953c 6d9d adbb
00000130: 9e18 d23c 9a22 00bd 658e 103d 9b86 84bd
00000140: 315f 08bd 9f2f 303c e467 a0bc 82b6 c5bc
00000150: d774 b13b dfe8 1ebc 8ddc 07bc ed52 0d3d
00000160: 8a0f 83bd ac86 fcba 4045 6abd d227 733c
00000170: 25ab 12bc 9900 aa3c 6e63 253d fa46 09bd
00000180: 928c f9bc 9774 e23c 4084 883c 39b6 d1bc
00000190: 1219 3abd 5385 df3c 8ff7 313d 80bc 9fbc
000001a0: b670 7fbd 0a23 6c3c 809c 0b3c b50c 063d
000001b0: d386 ccbc fb37 3dbd 7a16 56bd 2de5 6abd
000001c0: a551 9538 0b8b 2bbc 17ed a0bb e773 5fbc
000001d0: 408f 773c 4073 c23c 7fe3 923c 4ec3 5ebc
000001e0: 8c50 debc dadd 5abc 7772 413d 1051 033c
000001f0: d399 aa3c f4f6 393d 0108 c93c d494 a63c
00000200: d021 f1bc f59b 543d 5d71 40bd ef14 38bd
00000210: 5d34 75bc fe15 a63c b318 083d 16f6 033d
00000220: 0c69 3dbd 864c aa3c e826 10bd c8c6 2abd
00000230: c164 23bd d1e8 92bc a6ca 10bd 05cd cbbc
00000240: d007 7cbd 0a28 2c3d 0f3a c8bc ffd3 413d
00000250: b790 363d 20a2 ed3a b881 f6bb 85dc 223c
00000260: 9ca6 a33b dee5 2f3c 58ce 57bd 3a49 6dbc
00000270: c038 4d3d f724 16bb 2d8d 423c 9b99 393d
00000280: c32a 96bc 49f0 c2bc 96b8 13bd b640 15bd
00000290: 51c7 83bc 1169 db3c e90a 0dbd db79 a2bc
000002a0: 4d32 6abd 384b 1ebd 206a a13b 30d8 66bd
000002b0: 3502 323d 53b2 9f3c 428c 39bb 68a5 2e3d
000002c0: 7cc1 0cbd 200b 2cbb 451a 8fbc f424 b4bb
000002d0: b802 4cbd 3866 c53b 63a6 c5bc b791 9ebc
000002e0: 308e b23c 054c 63bd 41ea 64bd ce0f 09bd
000002f0: f540 4c3d 3db8 67bd 51c7 04bc 61bb e63c
00000300: c54a 5dbd da11 173d 7ccc a73c e0ee 46bd
00000310: 9719 3bbd 4292 e1bb 3cb1 463d ae92 143b
00000320: 7950 9bbb 109a 40bd 4d53 3e3c 3c56 48bd
00000330: 0e31 6fbb 4ab0 dd3c 9908 043d 45c8 363d
00000340: 9393 103d eff0 873c 8688 6bbd 0c9a fa3c
00000350: dbce efbc b75f 0e3c 6ab5 2f3d 871f ce3c
00000360: 3502 3b3c ce0b 75bd 8880 12bd 1aae c33c
00000370: 217e 59bd ce94 6ebd 564b 80bd c256 6ebd
00000380: d908 923c 94fe e4bc 05de d2bb c0bc 683a
00000390: f046 d5bc 6d9d 433d 945a 113d 736a 1b3b
000003a0: d4cb 23bb a130 cbbc d532 2c3c e2b0 013d
000003b0: 9767 fdbc a5ce 0bbd 0ef5 a2bb e1f2 2fbd
000003c0: aaf0 e5bc dcfb 3b3d 778b 41bd 6521 1bbc
000003d0: 8ee9 783c a108 1a3d bc13 39bd 8554 e8bc
000003e0: 7dba 7c3c 9047 c5bc 3c88 603b dee9 adbc
000003f0: fa1f c63c 2f2f 303d 513c 16bd 92ec ec3b
0.028933674 -0.014700688 -0.021722902 -0.051049802 -0.049950447 -0.05557414 -0.03515624 -0.06458391
-0.02348305 -0.013507417 0.014218034 -0.014486481 -0.02144178 -0.049606785 0.032577053 0.051278546
-0.006878688 0.007699711 0.002687713 0.03015259 -0.03458858 -0.017348392 0.020704439 0.0006171452
0.01779675 0.0020772985 -0.031928636 -0.055989616 0.04967117 0.034933772 -0.029320287 0.024675187
0.0464088 -0.027256697 -0.02341957 -0.028103942 -0.06345569 0.027913215 -0.019703625 0.03445621
-0.009420029 0.0020381142 -0.06115764 -0.0053651733 -0.0072683604 -0.053716276 -0.031434573 -0.042697158
-0.023756037 0.033165634 -0.047543395 -0.0044408333 0.04305467 -0.02314235 -0.0447404 0.032204308
-0.017839052 -0.023937017 -0.026896149 -0.0158773 0.022853011 0.022545235 0.0013042756 -0.020990754
-0.018220948 -0.04991245 -0.00096344546 -0.006324422 -0.0035990346 0.0519178 0.010463064 -0.0036291145
-0.037787527 0.03183307 0.01824678 -0.0052983076 0.025646504 -0.031283 0.035292048 -0.064709865
-0.033293907 0.010753541 -0.019580789 -0.024134878 0.0054155397 -0.0096990755 -0.0082923295 0.034502912
-0.06399448 -0.001926621 -0.05719495 0.014841037 -0.008951937 0.020752238 0.040378027 -0.033514954
-0.030462537 0.027643485 0.016664624 -0.025599586 -0.045434065 0.027285254 0.04344898 -0.019499063
-0.06236335 0.014412651 0.008521199 0.032726962 -0.024966633 -0.046195965 -0.05226753 -0.057347465
7.120081e-05 -0.010470162 -0.004911076 -0.013638473 0.015109837 0.023736596 0.017930744 -0.013596369
-0.027138017 -0.013358558 0.047228303 0.008014932 0.020825302 0.04540153 0.02453995 0.020334639
-0.029435068 0.051906545 -0.04698311 -0.04494184 -0.014966098 0.020274159 0.03322668 0.032217108
-0.04624276 0.020788442 -0.035193354 -0.04169348 -0.03989101 -0.017933281 -0.03534951 -0.024878034
-0.061530888 0.04203037 -0.024441747 0.047321316 0.044571605 0.0018129982 -0.007522788 0.009940271
0.0049942266 0.010735957 -0.05268702 -0.014482791 0.05010295 -0.0022910216 0.011874479 0.045312505
-0.018330937 -0.023796218 -0.036064707 -0.036438666 -0.016086252 0.026783498 -0.034434233 -0.019833496
-0.057176877 -0.038645953 0.004925981 -0.056358516 0.043459136 0.019494211 -0.002831236 0.042638212
-0.03436421 -0.0026251748 -0.017468581 -0.005497569 -0.04980728 0.0060241483 -0.024127191 -0.019356592
0.021796316 -0.05549242 -0.055887464 -0.03346234 0.049866635 -0.056572188 -0.008104161 0.028165521
-0.054026384 0.03688226 0.020483248 -0.048567653 -0.0456787 -0.0068838904 0.048508868 0.0022670436
-0.0047398177 -0.047021925 0.01161654 -0.048910365 -0.0036497745 0.0270616 0.032234762 0.044624586
0.035296988 0.016594378 -0.057503246 0.030591033 -0.029273441 0.008689812 0.04289762 0.025161518
0.0114141 -0.05982571 -0.03576711 0.023886729 -0.0530988 -0.05824738 -0.06264369 -0.058188207
0.017826485 -0.027953424 -0.006435158 0.00088782236 -0.026034802 0.047757555 0.035486773 0.0023714572
-0.0024993317 -0.024803462 0.010510166 0.03166283 -0.030933185 -0.03413262 -0.0049730605 -0.042956237
-0.02806886 0.04589449 -0.047252145 -0.009468411 0.0151924025 0.037605885 -0.045184836 -0.028360615
0.015425322 -0.024081975 0.003426089 -0.02122968 0.02418517 0.043013748 -0.036678616 0.00723035

bias f4 [32]
00000000: 80d2 453d c705 5f3d ead6 d73c 5d82 703c
00000010: de78 dcbb 8653 54bd 1dd8 e9bc bf2c 1c3d
00000020: 8639 343d 1b6d 36bd 8c8e 333c 8b71 d2bc
00000030: 2e84 d6bb 52ae 1cbd f552 143c cc1e d13c
00000040: 5e65 13bd 80e4 553d e050 f9bc f7ab 2e3d
00000050: 7796 ecbc 07ed e43c 65d3 44bd 9c22 afbc
00000060: 2ae7 d2bb 708a 783b 3004 1dbd 22ac 543d
00000070: b395 34bd f8c5 e1bc 6df6 33bd dd03 ddbb
0.04829645 0.05444887 0.026347596 0.0146795185 -0.0067282757 -0.051837467 -0.028545434 0.03812861
0.04400017 -0.044537645 0.010959279 -0.025688907 -0.0065465188 -0.038252182 0.009052982 0.02552738
-0.035985343 0.052219868 -0.030434072 0.042644467 -0.028880341 0.027945055 -0.048053164 -0.021378808
-0.0064362483 0.0037924312 -0.03833407 0.05192197 -0.044088077 -0.02756022 -0.04393618 -0.0067448453

weight f4 [32]
00000000: 7f70 7e3f df0f 7e3f 5f91 7e3f 6d3b 7e3f
00000010: 228d 7e3f a0c4 803f 0764 7e3f e8b6 7e3f
00000020: 4b69 7e3f fdd4 803f d1c6 803f 88b2 7c3f
00000030: 0479 7e3f d066 803f c669 7e3f b460 7f3f
00000040: b7c4 803f 4573 7e3f 0ed7 803f 1398 7e3f
00000050: 0bbd 803f a4db 803f 78c9 803f eae0 803f
00000060: 1159 7f3f a884 7e3f 4ad1 803f 325f 7e3f
00000070: 06b1 803f 81b3 803f 1f86 813f e632 7e3f
0.99390405 0.9924297 0.9944057 0.99309427 0.994341 1.0060005 0.9937138 0.9949784
0.99379414 1.0064999 1.0060674 0.9870992 0.99403405 1.0031376 0.9938015 0.9975693
1.0060033 0.9939464 1.006563 0.99450797 1.0057691 1.0067029 1.0061483 1.0068638
0.9974528 0.9942117 1.006387 0.99364007 1.0054023 1.005478 1.0119056 0.99296415

bias f4 [32]
00000000: d5ce cb3b fbf9 6fbc 8cb8 2a3c 7d43 82bb
00000010: 6b3e d93b 1b7a 3d3b f02a 693b 4be8 1e3c
00000020: 2e8e 9fbb fd7f 9b3b 9516 fcbb 5289 bcbb
00000030: 5631 43bb cce3 a7bb 55b7 a73b 2b91 cbbb
00000040: c131 c33b 4f35 c0bb e0f3 b5bb 681f 9c3a
00000050: 2241 853b 339f a0bb d030 58bc bb5d ad3b
00000060: 48b7 d4bb a0cd 98bb 8adc b83b 2835 d9bb
00000070: 1b4f babb 5d92 90bc 467e 8e3c 66fb b13b
0.0062197247 -0.014647002 0.010419976 -0.0039753304 0.0066297553 0.0028911892 0.0035578571 0.009698938
-0.004869244 0.004745482 -0.0076931217 -0.0057536745 -0.0029784045 -0.005123591 0.0051182904 -0.0062123737
0.005956859 -0.00586573 -0.005552754 0.0011911215 0.0040666023 -0.0049017905 -0.013195232 0.0052907146
-0.0064915754 -0.0046631843 0.0056415247 -0.006628651 -0.0056856996 -0.017647916 0.017394196 0.0054315804

running_mean f4 [32]
00000000: 759e 99be f978 05be a734 57be b5df c8bd
00000010: 5c45 a3be 5b50 933e ff61 62be b684 57be
00000020: 5684 db3d cf04 633e d653 493e 05de 1b3d
00000030: 05bb 87be 8e6b 7d3d 33c3 6cbd cb21 6c3e
00000040: 651f 5c3d fe14 9a3d 32cb 2c3e 181b c63e
00000050: 3ce0 803e 621a 4f3e f897 3a3e 129e c63d
00000060: 26ef 3b3e 4690 ba3d ce8a 8c3e dd81 cc3c
00000070: 8ff9 293e 03dd 463e 9f22 e0bd 2422 b8be
-0.30003706 -0.13034429 -0.21016179 -0.09808294 -0.31888855 0.28772244 -0.22107695 -0.21046719
0.107186005 0.22169803 0.19660887 0.03805353 -0.26509872 0.06187015 -0.057803344 0.23059766
0.053740878 0.07523535 0.16874388 0.38692546 0.25171077 0.20224908 0.18222034 0.09698118
0.18352947 0.09109549 0.2744965 0.024964267 0.16599105 0.19420247 -0.109441034 -0.35963547

running_var f4 [32]
00000000: f93c a53f 8c6d b13f b869 e83e 504c 6d3e
00000010: bdf9 df3f 6fb2 623f 619b 263f e3ab 413f
00000020: 784e e43d 0909 5b3f 9efb 6b3f 8d17 c83d
00000030: 9ddb 9b3e 723d c73e 8095 313e 8f41 873e
00000040: 39c0 643e 5302 2b3e 31d9 883e 7b1b 3f3f
00000050: 3283 f33e 349d d13d 1c54 523f 3cd3 703f
00000060: 4933 a83e 4574 403f 168c c63e 6e61 443e
00000070: 61c2 813e 952b 823f c903 193e 5866 ec3f
1.2909232 1.3861556 0.45393157 0.23173642 1.7498089 0.8855352 0.6508084 0.75652903
0.11147779 0.8556066 0.9218081 0.09770117 0.3044099 0.38914067 0.17342186 0.26417205
0.22338952 0.16700105 0.26728204 0.74651307 0.47561032 0.10235062 0.8215959 0.9407232
0.32851627 0.75177413 0.38778752 0.19177791 0.25343612 1.016955 0.1494285 1.8468733

weight f4 [1, 32, 3, 3]
00000000: a6eb fe3c adb1 17bd 411d 193d 3f08 09bd
00000010: b7cc 463d 29a1 f039 de25 6fbd e6a2 9fbc
00000020: 8c46 0d3d df01 bf3c 6c2e 433d 82b8 22bc
00000030: d64c 533c 130a c9bc 192a 56bd fc4d 84ba
00000040: b8c4 873b 47a9 ebbc ba7d 26bc 55d5 34bd
00000050: ac1f a03a c40b 1ebd 9585 163d 2dab c3bb
00000060: 6dad bdbc f6f2 453d 4141 b5bb 2fe1 07bd
00000070: 9c66 17bd e14e 1f3d e572 8fbc 5f62 05bc
00000080: 181d 3fbd b536 283d e9e7 e3bb 493d b23c
00000090: da1c 1cbc 8575 ffbc a9c8 d6bc 1987 dbbc
000000a0: 1675 083d 9a8d 663c 5005 bf3b 097c c53c
000000b0: 740c 00b9 7230 e6bc 0474 42bd 2508 5abd
000000c0: 8749 f13c d885 fabb 2fc9 ac3b 52e0 f8bc
000000d0: 6408 803c 3550 72bd 40ed 513d 15ca 80bc
000000e0: e8da 143b 2e11 00bd 38d5 fe3c 6457 263c
000000f0: c0f1 c63b e2a7 debc e496 18bc b84d 83bd
00000100: bdee 42bd bd88 833b 80d7 eabc f232 103d
00000110: c18b 283d bb41 b03b dc6d b6bc a2df 243d
00000120: 90d2 72bd 7645 01bd ff10 933c 8ceb fe3b
00000130: d011 8bbb 5a82 7fbd 5114 413d 3f53 163d
00000140: 46e3 363d d031 74bd ed5f e23c fa7b f63c
00000150: 11f3 b2bc 9c3c 0bbc c659 39ba 4016 dfbb
00000160: 0009 17bd b90f bfbb 381f 2a3d e021 02bd
00000170: d55a 08bd e629 75bd ffe0 38bd 9476 78bd
00000180: 2d36 8ebc 09d8 3e3c f3d3 4e3d 5a2c c33c
00000190: 5128 01bd 0a9e 413d f6c2 51bd a021 2dbd
000001a0: 8d7f a33c aa6e 26bd 9a22 24bd ac4c d0ba
000001b0: d2f9 593c 03d5 60bd a763 57bd a5f7 e63c
000001c0: 18d9 103d 9bcb fa3c 7f28 3dbc fbd9 66bc
000001d0: 02c3 8e3c 8a61 193d 66ed 0fbd aaf5 00bd
000001e0: 69a3 3a3d eae2 41bd e67f cebc 71f6 71bc
000001f0: f232 d0bc 06c3 38bd 84c1 e8bc 6338 0a3b
00000200: 2eb2 223d 911f 20bd 3b01 2b3d d8c6 84bd
00000210: 0c83 d53c 28ed 2bbd 8e04 b23c 7185 8ebc
00000220: eab8 473d 9cbf b9bc 1b8d 893d 6642 3fbd
00000230: b47c 9a3a 65b0 8cbb 1c1e 72bc 97f8 ecbc
00000240: efd4 11bb 7de3 62bc 721c 84bd b50e ce3c
00000250: 37bd 3f3d 4245 5c3c 8b1f 4bbb 05e3 3bbc
00000260: 1dbc 83bd e329 583d bbb4 4dbc eff1 53bd
00000270: 45e4 d63c 27f7 533d 977e 7cbd 2cc0 35bd
00000280: 5919 673c a515 73bd db1f 33bd 5fc5 2f3d
00000290: daff 55bd e08c f0bc b4d9 f2bc 6ea5 31bd
000002a0: 0fc8 4f3d 4f40 263c b805 13bd 13dd 3cbc
000002b0: d7ec eb3b 776e 693c 40e9 423d 9732 4abc
000002c0: 89d9 54bd 6dc6 56bd 3ff5 3fbc cbd0 5dbc
000002d0: 8ace 353c eb13 09bd e8ab 71bd 5533 db3c
000002e0: 6c4e 513d ad70 2fbd 942b 78bd 1081 b53c
000002f0: 5ad7 16bc fc8e d6bb 317e 313c d867 59bc
00000300: 5e91 05bd be33 4dbd fead 16bd 2897 2f3b
00000310: 61de 333d aff4 bebc e329 17bd e1fa 17bd
00000320: 59f3 a9bc 07a6 a0bb ea8b 69bc ab24 0d3c
00000330: e16d b3bc eed6 4d3c a265 d5bc 7e47 1bbd
00000340: ac11 0f3d 4157 07bb 1cd0 2abd 7864 b7bb
00000350: c96e 9e3c f92f 07bd 953c 2d3c c703 41bd
00000360: 8627 173d fb85 43bd 4afe 2cbd 37ca 6939
00000370: 4a9a 4ebb f1e5 7d3c c226 59bc 6776 62bc
00000380: 4250 23bc 7899 61bc 5e32 9b3c 88c6 083d
00000390: 9f2c fe3c fa28 5fbd 0068 a3bc 5c6e 82bd
000003a0: 5063 2cbc 124b 4b3d 2bb6 933c d50c 27bd
000003b0: e160 473a 224d a5bb 5297 76bd 6f73 b9bc
000003c0: 9b22 993c e821 00bd c570 24bc b746 cd3a
000003d0: 3fcc c3bc 4205 78bd 89e2 cb3c 6e74 8abc
000003e0: 5d31 443d d2ba 14bc 0e27 b63c f94a aebc
000003f0: ee5e 513c f8dd c3bc b9be 513c d523 453d
0.031118225 -0.03703468 0.037381414 -0.03345513 0.048535075 0.0004589644 -0.058385722 -0.019486856
0.034491107 0.023316322 0.047651693 -0.009931685 0.012896737 -0.024540937 -0.05228624 -0.0010094042
0.0041433237 -0.028767241 -0.0101618115 -0.04414876 0.001221647 -0.03858544 0.036748488 -0.0059713335
-0.023153985 0.04832741 -0.0055314605 -0.033173736 -0.03696309 0.038893584 -0.01751084 -0.008141129
-0.046658605 0.041067798 -0.006955136 0.021757739 -0.009528363 -0.031183967 -0.02621873 -0.026797818
0.033314787 0.014071846 0.0058294907 0.024106996 -0.0001221167 -0.028099272 -0.047473922 -0.053230423
0.029454006 -0.00764535 0.0052730064 -0.030380402 0.015629001 -0.059158523 0.05125165 -0.01572136
0.0022713486 -0.031266384 0.03110753 0.0101526715 0.0060712993 -0.027179662 -0.009313319 -0.06411308
-0.04759096 0.004014103 -0.028667212 0.035204835 0.041148905 0.0053789294 -0.022269182 0.040252335
-0.05928284 -0.031560384 0.01795244 0.007779544 -0.004244067 -0.062380172 0.047138516 0.036700483
0.04465034 -0.059617817 0.027633632 0.030088414 -0.021844419 -0.008498337 -0.0007070567 -0.0068080723
-0.036873817 -0.0058307317 0.04153368 -0.031770587 -0.03328975 -0.05985441 -0.045136448 -0.06065996
-0.017359817 0.0116481865 0.0504951 0.02382486 -0.03153259 0.04726986 -0.05121132 -0.042268395
0.019958282 -0.04063288 -0.04007206 -0.0015891991 0.013304191 -0.054890644 -0.05258527 0.028194258
0.035363287 0.030614665 -0.0115453 -0.0140900565 0.017426971 0.037446536 -0.03513851 -0.031484284
0.045565996 -0.047335543 -0.025207471 -0.014768229 -0.025414918 -0.045107864 -0.028412588 0.0021090738
0.039720707 -0.039092604 0.04174922 -0.06483239 0.026063465 -0.041974217 0.021730687 -0.017397614
0.048760332 -0.022674374 0.06716367 -0.04669418 0.0011786432 -0.004293489 -0.014777686 -0.02892713
-0.0022252162 -0.013848183 -0.06450738 0.025153497 0.04681131 0.013444247 -0.0030994143 -0.0114677
-0.06432364 0.05277432 -0.0125552965 -0.051744398 0.026231894 0.051749375 -0.061644163 -0.044372723
0.014105164 -0.059346814 -0.04373155 0.042912837 -0.052245952 -0.02936405 -0.029644825 -0.043370657
0.0507279 0.010147168 -0.035894126 -0.011527318 0.0071998644 0.014247528 0.047585726 -0.012341163
-0.05196527 -0.052435327 -0.011716186 -0.01353855 0.011096606 -0.03346626 -0.059001833 0.026757875
0.05110018 -0.042832065 -0.060588434 0.022156268 -0.009206617 -0.006547807 0.010833309 -0.013269387
-0.032609336 -0.050098173 -0.036787026 0.0026792977 0.04391325 -0.023310034 -0.03690518 -0.03710449
-0.02074592 -0.0049026045 -0.0142545495 0.008614699 -0.02190298 0.01256345 -0.026049439 -0.037909977
0.034928963 -0.0020651373 -0.041702375 -0.0055966936 0.019339936 -0.033004735 0.010573526 -0.047122743
0.036902927 -0.047735196 -0.042234696 0.00022295942 -0.003152507 0.015496717 -0.0132538695 -0.013822175
-0.009967865 -0.0137695 0.018944915 0.03339246 0.031027136 -0.054482438 -0.019947052 -0.06368706
-0.010521725 0.04963214 0.0180312 -0.040783722 0.00076056836 -0.0050445953 -0.060202904 -0.02263805
0.018693259 -0.031282336 -0.010036652 0.0015661333 -0.023901103 -0.06055189 0.024888294 -0.016901221
0.04789864 -0.009077745 0.02223542 -0.021275984 0.012778981 -0.023909554 0.0128018195 0.048129875

weight f4 [32, 1024]
00000000: bbfb a2bc 3fc0 03bc a1a1 0c3b 830e d7bc
00000010: 42e2 6ebc 87cd 0abd 20dd b0bc 649d 133d
00000020: a579 873c 5aff 943c e986 10bc 7781 9fbc
00000030: b058 843c 9bcb b1bc 4ba6 4b3a 2b23 3b3b
00000040: 80d4 a9bc fb66 e2bc a827 493c c0ea 13bb
00000050: ae71 9fbc 3686 d23c 483c 8d3c 1502 453c
00000060: 477b 453c c2eb bdbb 3959 11bc faf6 dbbb
00000070: d4e1 ccbc 1b1b 203c dd2e edbc ed06 dc3c
00000080: 2d69 073d 94e2 8bbc 4b29 a63c 1fa1 4fbc
00000090: 97a8 40bc e7e4 e03c 7ff4 50bc 11f6 d2bc
000000a0: 8e28 4d3b df52 edbc bfcc 0d3d 0705 053b
000000b0: 6cdb 93bc 05cc 483c 3cb1 babc bdef c6bc
000000c0: 1569 5bbb bb06 ba3b 170e 85bb 92da 963c
000000d0: c70c 45bb 4895 8e3b 6a00 c33b 8675 02bd
000000e0: 3134 d33c dc88 953c 31a5 c3bc bbd1 09bd
000000f0: a28e 0dbd 18d6 25bc 5868 e43c 95d8 b63b
00000100: e708 7c3c a054 c23c ad0f 543c a2be 18bc
00000110: fcde fe3c 91d1 da3b da43 643c b655 0b3d
00000120: e1b2 c2bc 94e4 68bc 2bb7 d7bc 8b38 373b
00000130: 1ba0 713c 7c42 c73c ae95 b3bc 475d ca3c
00000140: b5f4 a8bc 95de 2a3c 6249 8ebc 023a b93c
00000150: c6df 1abc 6b72 b43c c280 0bbd dd52 fa3b
00000160: 594f cdbc 66d8 c63a 3bb7 0cba cff4 ac3c
00000170: 8b36 a63c 9513 183d b2f6 8c3c 1d92 22bb
00000180: d16f aebb e504 8c3c 7ade 7e3b 78f4 363a
00000190: ccf8 45bc accd 91bc 3c1b c83c fa25 9dbc
000001a0: f2d7 2dbc 1313 01bd 2866 b13c f9ea 98bc
000001b0: 8439 463c 81e7 7fbb 8260 343c 4a06 79ba
000001c0: d2ef 24bc b58e 863c 1a11 103d 0dca a33b
000001d0: ad7c d2bc 59c2 2e3c b1d0 8ebc 51d6 e73c
000001e0: 8b73 ba3c a230 de3c c7a1 0cbc 0954 ec3c
000001f0: e091 41bc ce99 833a 4970 9d3c 3d48 e03c
00000200: 97b6 1f3c f6fa c63c ed70 cebc e7f3 85bc
00000210: 3ff5 683c 2b20 9039 dc6c b73c 5a79 d6bb
00000220: c195 82bc c680 9dbc 7dc6 75ba 74c9 083d
00000230: ee56 b83c 9b81 f3bc 26f2 16bd a340 9c3c
00000240: b8bb 703c 4aa7 e2bc 63c0 b93c 30d9 39bc
00000250: 9b63 0d3d a970 993c 1d23 953b 18c6 1e3c
00000260: 69f9 51bc 9866 0abd f7e0 6d3c b990 e5ba
00000270: 542e 7fba fb5a 863c 2d26 37bc 06ba cd3b
00000280: 64c5 bb3c d209 0f3a 3169 58bb 4036 953c
00000290: 2cf9 29ba 679d b83c 4f1c d1bb 308f 13bd
000002a0: 5f4e 8ebc d5c9 c6bb 6726 a83c 79ea 8c3c
000002b0: f941 b1bc 3a12 033d 5734 aabc 95b5 3a3c
000002c0: 392b c6bc dd80 de3c c52e b73c 4a8b e13c
000002d0: fdd1 6cbc eb31 fe3b b14b c83c e61d fa3b
000002e0: 2508 5d3c 33b6 8bbc 97c0 1c3b 16de 6f3c
000002f0: 2a3f 133d b7dd 803c 049b e73c 2691 62bc
00000300: a32a 37bb 7480 e6bc 9df6 7f3c 8ea8 b3bc
00000310: 9639 b13c fdee b23b 8622 463b 7643 b33c
00000320: 6d28 c8bc 7c25 b9bb 3bb9 34bc b110 ad3c
00000330: 42fc cabc e90d d53c f78b e4bc 23e9 c6bb
00000340: 76fc f4ba 3b32 f43a c6c3 efbc 2fd7 7cbc
00000350: 5c96 4f3b 5751 aaba d27e dcbc fe07 7d3c
00000360: 55fa e1bc 8f96 61bc 8436 663a c857 d1bc
00000370: c73d 5abc d8e5 83bc fc7b c4bb d9ad 9bbc
00000380: ff65 c13c e60b 94bb db25 56bc 1bd6 f4bc
00000390: bd0b 96bc b9de fabc 77fd d6bc a1f0 0ebc
000003a0: 3404 ab3c 9fec ea3b 3767 cebb 35f0 da3b
000003b0: 28e8 1dbc 7528 ec3c 846d 34bc 1829 953b
000003c0: c8da 8a3c e94a 5dbc c14d 743c 93b7 bc3c
000003d0: 48b2 523c 5512 cf3c 7070 aebc 887b a8bc
000003e0: 4d54 eebc a237 b43c 6de8 953b b636 ddbc
000003f0: abd5 d3ba 60f7 d73b cd88 b339 e26b b73c
-0.019895425 -0.0080414405 0.0021458643 -0.026252037 -0.014580311 -0.033887412 -0.021589816 0.03603877
0.016537497 0.018188167 -0.008821228 -0.019470913 0.01615557 -0.021703532 0.0007768615 0.0028554897
-0.02073121 -0.027636996 0.012277521 -0.0022570342 -0.019463386 0.025698762 0.017240658 0.012024422
0.012053317 -0.005795927 -0.00887137 -0.0067127915 -0.025010027 0.009772087 -0.02895301 0.026858771
0.033059288 -0.017075814 0.020283362 -0.012672692 -0.011758945 0.0274529 -0.012753605 -0.0257521
0.003130469 -0.02897018 0.03461909 0.0020297186 -0.018048964 0.012255673 -0.02278959 -0.024284238
-0.0033479382 0.005677072 -0.0040605175 0.01841477 -0.003006743 0.004351292 0.005950977 -0.03185036
0.025781723 0.018253736 -0.02388248 -0.03364728 -0.034559853 -0.010121845 0.027881786 0.005580018
0.015382982 0.023721993 0.0129431905 -0.009322794 0.031112187 0.0066778143 0.013932193 0.034017287
-0.023766937 -0.0142146535 -0.026332458 0.0027957286 0.014747645 0.024323694 -0.021921959 0.024702681
-0.020624498 0.010429044 -0.017368976 0.022610668 -0.009452766 0.022027215 -0.03405834 0.0076392726
-0.02506225 0.0015170693 -0.00053678796 0.021112828 0.02028968 0.03712805 0.017207477 -0.0024806329
-0.005323388 0.017092178 0.003888993 0.00069791777 -0.012083244 -0.017798267 0.024427049 -0.019183148
-0.010610567 -0.03151233 0.021655157 -0.018666731 0.012098674 -0.00390479 0.011009337 -0.00094995333
-0.010066943 0.01642547 0.03517256 0.0049984516 -0.025694216 0.010666453 -0.017433496 0.028300436
0.022760173 0.0271228 -0.008583493 0.028848665 -0.0118145645 0.0010040344 0.01921858 0.027378196
0.009748123 0.02428959 -0.025200332 -0.016351653 0.0142186275 0.00027489787 0.022390775 -0.006545228
-0.015940549 -0.019226443 -0.00093755854 0.033395246 0.022502389 -0.029724887 -0.036852024 0.01907379
0.014693193 -0.02766766 0.022674745 -0.011343285 0.03451882 0.018730478 0.004551305 0.009690784
-0.012815812 -0.033789247 0.014518968 -0.0017514444 -0.00097343815 0.016400805 -0.011178535 0.0062782792
0.022921272 0.00054564804 -0.0033021683 0.018214345 -0.0006483968 0.022535993 -0.0063815485 -0.036025226
-0.017371355 -0.0060665407 0.020526124 0.017201649 -0.021637904 0.031999804 -0.02077691 0.011395832
-0.024190532 0.027161056 0.022361169 0.027532239 -0.014454362 0.0077574155 0.024450155 0.0076329587
0.013490711 -0.017054653 0.0023918503 0.014640352 0.03594891 0.015730722 0.02827216 -0.013828551
-0.0027948997 -0.028137423 0.015622762 -0.02193096 0.021633904 0.0054606185 0.003023298 0.021882754
-0.024433339 -0.0056502204 -0.0110304905 0.021126123 -0.024778489 0.02600761 -0.027898772 -0.0060702725
-0.0018690962 0.0018630693 -0.029268157 -0.015432163 0.0031675315 -0.0012994212 -0.026915941 0.0154438
-0.027585188 -0.013768806 0.0008781927 -0.025554553 -0.013320393 -0.016100809 -0.0059962254 -0.019003795
0.023608206 -0.00451802 -0.013070549 -0.02988725 -0.018316144 -0.03062378 -0.026243908 -0.008724363
0.020876028 0.0071693207 -0.0062989253 0.006681467 -0.00963787 0.028827885 -0.011012439 0.004552018
0.016950026 -0.0135066295 0.014911116 0.023036754 0.012859888 0.025277296 -0.021293849 -0.020566717
-0.029092932 0.021999184 0.0045748265 -0.027003627 -0.00161617 0.0065907687 0.00034243465 0.02239031

bias f4 [32]
00000000: b2ca 043d 7954 3dbc f77c d23c 6207 74bc
00000010: 583d a93c 4a60 1e3b 3b15 cc3c 8a97 7c3c
00000020: 73e5 483c 72f5 683c e99c 30bd 8375 90ba
00000030: d604 053c 0f00 223c 18d8 ed3c d4fe 9fbb
00000040: 637f f33c 3437 af3c 9561 9bba 199c f53b
00000050: 87e4 05bc 358a d73c 312a 1bbb 5959 af3c
00000060: 90b6 ae3c 2cc2 bcbc 0593 9abc bdd9 1dbd
00000070: 7eb9 16bd 22b0 f8bc 7358 a0bc a3ad 4abc
0.032419868 -0.011555784 0.025694354 -0.014894338 0.020659134 0.002416628 0.024912467 0.015416989
0.012261736 0.014218675 -0.04311839 -0.0011021349 0.008118829 0.009887709 0.029033706 -0.004882673
0.029723829 0.021388628 -0.0011854643 0.007495415 -0.008172161 0.02631102 -0.002367627 0.021404909
0.021327287 -0.023041807 -0.018868933 -0.03853773 -0.036797993 -0.030357424 -0.019573426 -0.0123705
